trial2/checkpoints/df.pth (torch, 82539 bytes, 22 tensors)

aabb_train f4 [6]
000000 00 00 80 bf 00 00 80 bf 00 00 80 bf 00 00 80 3f
       -1.0 -1.0 -1.0 1.0
000010 00 00 80 3f 00 00 80 3f
       1.0 1.0

aabb_infer f4 [6]
000000 00 00 80 bf 00 00 80 bf 00 00 80 bf 00 00 80 3f
       -1.0 -1.0 -1.0 1.0
000010 00 00 80 3f 00 00 80 3f
       1.0 1.0

sigma_net.net.0.dense.weight f4 [64, 75]
000000 a8 b7 8d bc f6 80 75 bd 75 34 41 3d fc 3d 40 3d
       -0.017299488 -0.05993744 0.047169168 0.046934113
000010 96 9c 50 bd ee b7 ff 3b d1 d2 14 be 34 7b 2c be
       -0.050930582 0.0078039085 -0.14533545 -0.16843873
000020 f2 bd 83 bb 18 a0 86 3d c4 44 93 3d a3 78 a0 3d
       -0.004020446 0.06573504 0.071908504 0.0783551
000030 8f 73 dc bd bd a4 f1 3c 78 8e 1a be b3 a5 a8 3d
       -0.107642286 0.029497499 -0.1509341 0.082347296
000040 dc a0 40 3d 62 75 0a bd 2d 64 04 be f0 f2 6a bd
       0.047028407 -0.03380335 -0.12928839 -0.05736059
000050 ca f4 3f bd fe c6 c5 3c 4a 86 d1 3d e3 01 25 3c
       -0.04686431 0.024142738 0.10230692 0.010071251
000060 28 53 aa bd be b1 e7 bd 63 66 2c 3a ca 25 4d 3d
       -0.08316642 -0.113131985 0.0006576536 0.050084867
000070 cc 79 82 bd 62 7e 46 3d eb 1e 3f 3d 9b 9a b2 bc
       -0.06370887 0.04846037 0.046660345 -0.021802237
000080 28 1c ea 3d cc 85 6b bd 25 78 a9 3d 61 46 97 bd
       0.11431152 -0.057500646 0.08274869 -0.073864706
000090 2b 98 a8 3c c6 ff cf 3c e3 49 84 bb ca f4 51 3d
       0.020580372 0.025390517 -0.0040371283 0.05125884
0000a0 c7 05 a5 bd 02 bf 62 bd bf c6 96 3d 27 c7 26 bd
       -0.080577426 -0.05535794 0.073621266 -0.04071727
0000b0 fd 1e a5 3d df de bb bd e3 c8 a0 bd f3 2c bc 3d
       0.08062551 -0.09173369 -0.07850816 0.09188261
0000c0 30 c0 8f bd 26 d8 a8 bd 8a 65 d8 bd 03 12 3f 3d
       -0.07019079 -0.08244352 -0.10566242 0.046648037
0000d0 f3 18 9f bd e3 51 84 3b 41 d7 b1 3d 0d d6 69 bd
       -0.077684306 0.004038082 0.086836345 -0.0570889
0000e0 eb 06 a2 3c 20 80 50 bd 53 94 a7 3c d7 65 5c bd
       0.01977869 -0.05090344 0.020456469 -0.05380806
0000f0 23 9b 11 bb 51 4d ab bd 5b d7 1b bc 26 93 de bb
       -0.0022217713 -0.08364356 -0.009511794 -0.006792444
000100 f4 20 ce bd 7f e2 a5 bd ee 4f 70 3d e6 ae e5 bd
       -0.10064879 -0.08099841 0.058669977 -0.11215
000110 cb 06 35 bc 7b ee 8e bc 66 c7 de bc 79 b0 95 bd
       -0.011048983 -0.0174477 -0.02719469 -0.0730905
000120 cb 7c e4 bd 2e ad ce 3c 45 cf 5a bd 65 17 2a 3d
       -0.11156615 0.025229063 -0.053420324 0.041526217
000130 5c dd d5 bd d8 5a 44 bc 1b 6c 0b 3d 23 e7 8f bd
       -0.104426116 -0.011984549 0.034038644 -0.07026508
000140 05 9c bc 3d 12 de 2a be de 54 e7 3b e4 18 97 bb
       0.09209446 -0.16686276 0.0070596775 -0.0046111215
000150 58 a0 7e bd 8e da 3a 3d 8f e1 d4 bc 36 93 0a be
       -0.062164634 0.045618586 -0.025986461 -0.13532719
000160 ca 89 6f bc 37 52 f3 3c 3d a6 6d 3c 79 f2 38 bd
       -0.014620254 0.029702289 0.014504966 -0.045153115
000170 fa 69 1f 3b a8 47 0a bb 19 1c c1 bc 03 05 96 bc
       0.0024324642 -0.002109984 -0.023572968 -0.018312937
000180 42 d3 c7 bd 86 fe f2 ba d2 37 5d 3d f7 6e 28 3d
       -0.09757091 -0.0018538989 0.054008313 0.04112145
000190 54 cd b5 bd 8a 27 dd bc 26 8a 45 bc 9b 7a 22 bc
       -0.08877054 -0.026996393 -0.012056863 -0.009916927
0001a0 03 b4 0f 3d 8a 7c 71 bd 33 10 12 3c 99 fd 9c 3d
       0.035083782 -0.05895666 0.008914995 0.076655574
0001b0 77 dc a3 3d c6 c3 ee 3c 10 15 e8 3d d6 8b c5 3b
       0.08001035 0.029146086 0.11332142 0.0060286326
0001c0 53 17 a6 3b 23 fb 1b 3d 37 fb 26 3d 52 51 b0 bd
       0.0050686984 0.0380813 0.04076692 -0.086092606
0001d0 dd 68 99 bd da a9 6e 3d f4 e0 df 3d 92 8c d6 3d
       -0.07490704 0.05826745 0.10931578 0.104760304
0001e0 ef 8d 21 bd ea 61 51 bd da 26 4f 3d 13 87 b9 3d
       -0.039442 -0.05111877 0.05057416 0.090589665
0001f0 bb fa 20 bc 7b 99 0e bc ef b9 b9 bd c3 3e a1 bb
       -0.009825404 -0.008703585 -0.09068667 -0.004920812
000200 46 ae d2 bc b7 60 b3 3d 54 45 c3 bd 0a a9 77 3d
       -0.025717866 0.08758681 -0.09534708 0.060463943
000210 b3 70 8b bb 03 86 a7 3d a6 01 6a 3d 39 f1 90 3d
       -0.004255378 0.081798576 0.05713048 0.070772596
000220 7d fc 8e 3d 0f 96 2c bd b8 03 d8 3d 43 dc 9a 3c
       0.06981752 -0.042135295 0.10547584 0.018903857
000230 15 c1 89 3d 59 2e ad bd 83 1a 8f bb 30 45 db bd
       0.067262806 -0.08456106 -0.004367174 -0.10706556
000240 8a e8 c7 bd 36 81 76 3d 5f d7 b2 bc af 36 e6 bd
       -0.0976115 0.06018182 -0.021831213 -0.11240899
000250 e6 78 a1 bd a7 0b 09 bd 65 25 e8 3c f2 7a 82 bd
       -0.07884388 -0.03345838 0.028338144 -0.06371106
000260 b3 8e 16 bd 9b 87 53 bc 21 32 02 be 8b e8 89 3d
       -0.036757182 -0.012910749 -0.12714435 0.06733807
000270 3f c1 fd 3c fd ba 6f bd 32 65 4d bd f8 5e 46 bd
       0.030975936 -0.058527935 -0.050145335 -0.048430413
000280 dc a6 f4 bd f8 07 82 3d 07 ed 72 bd 44 a8 09 bd
       -0.119458884 0.06349176 -0.05930808 -0.033607736
000290 60 49 a9 3d e6 63 76 bd e5 2f eb 3c a1 b4 71 3d
       0.08265948 -0.060153864 0.028709361 0.05901015
0002a0 bb b9 e5 3c 77 e8 15 3e 31 64 bd 3d e6 c8 63 3c
       0.028042665 0.1463946 0.092476256 0.013902878
0002b0 93 f3 bf 3d 3a 0e 7a 3d 3b d9 1b 3d 4a 00 f8 bc
       0.0937263 0.061048724 0.038048964 -0.030273575
0002c0 a7 31 8c 3d 21 86 8f bd 16 a5 f3 3b 40 fd a3 bd
       0.06845408 -0.07008005 0.0074354513 -0.08007288
0002d0 e3 2a 9c bb d6 6c b1 bd c1 98 be 3d 08 4f d1 3d
       -0.0047658547 -0.08663337 0.09306479 0.10220152
0002e0 3f c7 8c 3d 47 49 02 3d ae f2 56 3d 07 9d 80 3d
       0.06873941 0.031808164 0.05247753 0.062799506
0002f0 d5 46 95 bd 5d f3 17 bd 0d e4 af bd 13 77 af bb
       -0.07288901 -0.037097324 -0.08588419 -0.005354771
000300 b1 23 be bd c4 0a c7 3d f4 66 d9 3d 25 d2 0f bd
       -0.09284151 0.0971885 0.1061534 -0.03511252
000310 7a ad 56 bd 3f 35 2d bd 67 45 1a 3d d7 ce 98 3d
       -0.052411534 -0.042287108 0.037663843 0.074613266
000320 8b e9 15 3d 56 79 d2 3c 0e 2c 50 bd a8 c8 cd 3d
       0.036599677 0.025692623 -0.050823264 0.10048038
000330 2c 94 d5 bd 73 4b 94 bd b1 c6 de bd 3e 47 7c bc
       -0.10428652 -0.07240953 -0.10877741 -0.015397845
000340 20 4c d5 bd f6 81 6b 3d ff 76 ae 3d e3 14 28 bd
       -0.1041491 0.057496987 0.085187905 -0.041035544
000350 94 38 dd bd 5f d0 23 3d e5 6b 85 3d 54 58 d9 3d
       -0.10801807 0.03999364 0.0651472 0.106125504
000360 83 77 ab bd 11 f4 89 3d 20 ae ca 3d 4e ca e5 3d
       -0.083724044 0.06736005 0.09896493 0.11220227
000370 f3 5f a1 bd 07 da d3 bd 52 2c 6b bd 3b 77 8a 3d
       -0.07879629 -0.1034432 -0.057415314 0.06761023
000380 06 2b 62 bc 73 e1 f7 3c 21 58 83 3d b8 5d a1 3b
       -0.013804203 0.03025887 0.06413294 0.004924502
000390 2d 94 de 3d 8d 54 ae 3d c4 fd 42 bb 8b 7a 80 bd
       0.10868106 0.085122205 -0.0029753307 -0.06273373
0003a0 dc 59 6d 3c 40 c7 5e bc 51 0a ab 3d 26 60 df bb
       0.014486756 -0.01359731 0.08351577 -0.0068168817
0003b0 e8 29 20 be cd 72 c4 bd 08 e0 57 bc 64 3a 8b 3d
       -0.15640986 -0.09592209 -0.013175972 0.067982465
0003c0 ce a9 a8 3d e4 63 1f bd d2 bd 30 bd cf f7 fe bc
       0.08235513 -0.038913622 -0.043149777 -0.031124024
0003d0 7e ba 00 3e 52 63 34 3c cb 81 83 bc ed 60 38 bd
       0.12571141 0.011010008 -0.016053101 -0.04501431
0003e0 5f d7 12 bd 2d e7 23 bd fa a6 77 3d 93 88 b5 bd
       -0.035849925 -0.04001539 0.060461976 -0.0886394
0003f0 4a 6f e8 bd e6 e0 68 3c 73 46 b2 3d 03 4c 14 bc
       -0.11349352 0.014213776 0.08704843 -0.009051326

sigma_net.net.0.dense.bias f4 [64]
000000 1f 88 ab bd e4 44 b3 bd d7 20 d1 bd 81 33 e3 3c
       -0.083755724 -0.08753374 -0.10211342 0.02773452
000010 ff 3e 52 3d c7 76 c4 ba 00 28 1a 3d b0 53 10 3e
       0.05132961 -0.0014989012 0.037635803 0.14094424
000020 f0 88 03 3e d9 a6 52 3d d0 f2 e2 bd eb b6 b7 3d
       0.12845206 0.05142865 -0.11081469 0.08970436
000030 85 b5 a3 bd 33 d9 8c 3d 39 30 dc 3d df 00 38 be
       -0.079936065 0.06877365 0.10751385 -0.17969082
000040 44 73 a6 bc 10 47 ef 3c ce 34 1f be a2 37 96 bd
       -0.020318635 0.02920869 -0.15547487 -0.0733483
000050 b4 a0 96 3d ba 5a 24 be 5c bb bb bb 42 27 44 3d
       0.073548704 -0.16050234 -0.005729122 0.047889
000060 f4 3c f2 3c 23 0f 19 be 8f 38 6e bd f6 2a d0 3c
       0.02957008 -0.1494718 -0.058159407 0.02541111
000070 16 6d 88 3d e5 ea c5 3d 99 96 ca bc b7 34 85 bd
       0.066614315 0.09663943 -0.024730014 -0.06504195
000080 d6 d4 2a bd d5 ba a3 3d 01 b2 d1 bd fb 59 29 bd
       -0.041706882 0.0799462 -0.1023903 -0.041345578
000090 5b 77 21 be 92 45 aa 3d 04 11 d6 3c 9b b0 27 3d
       -0.15768187 0.08314051 0.02613116 0.04093991
0000a0 2d 8e 05 be e1 2d ca 3c 8c db 2f 3d 19 cc 2a bd
       -0.13042517 0.02468008 0.042933986 -0.04169855
0000b0 f5 5a 1a 3e 52 26 b1 3d b5 46 83 bd db 40 4b bd
       0.1507376 0.08649887 -0.06409971 -0.049622398
0000c0 30 4f 36 3d 4b 19 48 3d 9a 8b 6f bd f4 e9 51 be
       0.044509113 0.048852246 -0.058482744 -0.20499402
0000d0 06 36 93 3c 35 0b da bc bb 5d 64 3b 9a c5 c2 bd
       0.017970096 -0.026616672 0.0034845907 -0.09510346
0000e0 be 0a c4 bd c4 46 1d bd e2 8d 74 3d 97 5a 0c be
       -0.095723614 -0.038397565 0.059705622 -0.13706432
0000f0 13 3f af bd 14 97 90 bc ce 9e c5 bd 3f 0f 8a 3d
       -0.08556952 -0.017650165 -0.0964943 0.06741189

sigma_net.net.1.dense.weight f4 [64, 64]
000000 e1 38 fd bd b8 78 55 3d d7 df 45 3c 35 8f ee bc
       -0.123643644 0.05211708 0.012077293 -0.02912102
000010 82 05 08 be 5e cc 95 ba fb 43 f2 3c c2 3b 01 3e
       -0.13283351 -0.0011428704 0.029573431 0.12620452
000020 a5 17 c4 3c aa 28 14 be 69 f3 bc 3c 6e 22 f6 3c
       0.023937056 -0.14468637 0.023065286 0.030045714
000030 c7 8b b8 3c f5 e4 69 3a 38 b4 dc bd b1 3a 6e 3d
       0.022527589 0.0008922362 -0.107765615 0.05816144
000040 ff f0 55 bc 1d 55 b0 3d 60 26 dc bb 75 cd 03 bd
       -0.013057946 0.08609984 -0.006718442 -0.03217836
000050 cc 90 0d 3e 74 23 27 3d 3e 46 c0 bd 22 d6 9a 3d
       0.13824767 0.040805295 -0.09388398 0.07560374
000060 aa 9b 09 3e 4b 58 4d bd fa cc b3 3c d7 c1 cf bd
       0.13438287 -0.05013303 0.021948326 -0.10144394
000070 ac 13 f1 bd be cd d1 3d 52 a2 1c be 90 fb 17 be
       -0.1177133 0.1024432 -0.15296295 -0.14842057
000080 34 3a de 3d 7a c5 e8 bd 94 39 8d bd 8e 08 15 3e
       0.10850945 -0.11365791 -0.06895748 0.14554045
000090 2b f7 03 be a2 74 63 3d ad 9f 5e 3c a3 b0 53 3b
       -0.12887256 0.05553115 0.013587874 0.0032301329
0000a0 b5 41 df 3d 96 ea 54 bd cb c6 02 3d e5 13 09 be
       0.109012045 -0.05198153 0.031927865 -0.13386495
0000b0 ba 28 13 bd 60 99 ba 3c e2 ff 48 bd 9e 1c 90 3d
       -0.03592751 0.022778213 -0.049072154 0.07036708
0000c0 0c ff 28 bc 17 ee 6a bd 9c c3 6d bd 29 3f b8 bc
       -0.010314714 -0.057355966 -0.058047876 -0.022491055
0000d0 0e a2 7c 3d d1 83 a7 3d be 9a d8 3c ae dd 9a bb
       0.061677985 0.08179439 0.026440974 -0.0047261333
0000e0 1c b4 13 bc 76 38 ac 3d f4 b4 62 bc 13 14 c9 3d
       -0.009015109 0.084092066 -0.013837088 0.09818282
0000f0 9b 3d 80 bc ba 2d bd 3c 39 e3 51 bd 74 4f e8 3d
       -0.015654376 0.023093093 -0.051242087 0.113432795
000100 bd 1b 8c 3d e9 88 5e bc 7e 83 52 bd 32 48 41 3d
       0.06841228 -0.013582447 -0.051394932 0.04718799
000110 35 6f a7 bd 87 29 36 3b bb be f0 bd 45 53 69 3d
       -0.08175508 0.0027795748 -0.11755129 0.056964178
000120 63 1b c1 3d a4 b4 0a 3e c6 1c d9 3d 4d e7 9d bd
       0.09429052 0.13545471 0.10601191 -0.07710133
000130 fb 59 f8 bc b9 e5 50 bd c6 ee 02 bd 02 95 33 bd
       -0.030316344 -0.05100033 -0.031965993 -0.043843277
000140 bf 7b 9a bd 7f dd 8c 3d 94 35 b5 bc 08 8e ad bd
       -0.07543134 0.068781845 -0.022120275 -0.08474356
000150 31 d1 87 3d fe 4b 89 3d f2 22 4c be d2 14 63 bd
       0.06631697 0.067039475 -0.19935206 -0.055439778
000160 16 f0 1e 3b e7 72 d7 3d 4c 81 9b 3d 90 21 0b 3d
       0.002425199 0.10519963 0.07593021 0.033967555
000170 39 d2 a1 bd 7f a0 6b 3d 64 03 ad bd 0d 38 40 3e
       -0.07901425 0.057526108 -0.08447912 0.18771382
000180 0c 2a 0d 3e 94 4a 17 bd d6 5b a4 bd ce cc 6d 3d
       0.13785571 -0.036936358 -0.08025329 0.058056645
000190 43 64 d8 3d 3e 3d 4d bc 07 03 53 3e 6c 51 1a 3d
       0.105659984 -0.012526808 0.20606624 0.037675306
0001a0 ba 7b e4 3a 9d 59 b9 3c 66 75 9b 3d 23 4f 7b bd
       0.0017431893 0.022625739 0.07590751 -0.061354768
0001b0 ba 58 0b 3e 3c 8d a2 3d 9b 80 17 bd 4d e5 51 3e
       0.13608065 0.079370946 -0.036987882 0.20497628
0001c0 6c 83 bf 3d e7 58 8c bd d1 6f 12 3c b2 10 00 3e
       0.093512386 -0.06852894 0.008937792 0.12506369
0001d0 e2 19 d2 3d 38 5a 93 bd 5a 9d 20 be 1f 51 08 3e
       0.10258843 -0.07194942 -0.15685025 0.13312195
0001e0 46 a6 95 bd 64 b4 9f bc af d3 a7 bd 8d 6b 9f bc
       -0.07307105 -0.019495197 -0.08194672 -0.019460464
0001f0 71 88 90 3c 32 6c 2e be d2 95 ad 3d 12 56 1c be
       0.017643185 -0.1703346 0.084758416 -0.15267208
000200 2c ae 7b 3d 1b 67 4c 3c cc 81 a0 3d f6 3d 48 bd
       0.0614454 0.012475754 0.07837257 -0.048887216
000210 f8 d5 06 bd cf 7e 64 3d be 73 b5 3c d4 d7 43 be
       -0.0329189 0.055784997 0.022149917 -0.191253
000220 16 85 12 be e0 5d 4a be e2 15 08 3d ee ed 40 bd
       -0.14308581 -0.19762373 0.033223994 -0.047101907
000230 2c 4a 0a 3d 7a 43 87 3d da f6 66 bc 59 73 60 3e
       0.033762142 0.06604667 -0.01409694 0.21919002
000240 80 ea ca bc ae d2 43 3d 5a a8 be 3d 26 97 ee 3d
       -0.024770021 0.04780834 0.09309454 0.11649923
000250 43 e4 13 3e 97 e0 0b 3b e5 3a b4 3d 80 c5 db 3c
       0.14442544 0.0021343583 0.08800296 0.026827574
000260 49 98 52 3d 00 74 f0 3d 17 35 ac 3d f8 5e f7 bc
       0.05141476 0.11740875 0.084085636 -0.030196652
000270 e8 4e 0a 3e 02 e5 4d 3d 1c 4e e9 3d d0 63 08 be
       0.13506663 0.050267227 0.11391851 -0.13319325
000280 6c 14 f4 bd 4b 19 67 3d ce 62 22 3c fd 9d a1 bd
       -0.11917958 0.056420606 0.009911252 -0.07891462
000290 70 d4 8e 3d b7 75 e5 3d 77 19 80 bd 5d 0d 06 bd
       0.06974113 0.11204093 -0.06254857 -0.032727588
0002a0 1a 72 37 3d 67 70 e4 3d 7f a6 f7 bb 51 6a d4 3c
       0.04478655 0.111542515 -0.0075576897 0.025929602
0002b0 3f 0b 2f be 2e ec 06 be 94 78 db bc f4 26 9b bc
       -0.17094134 -0.13176033 -0.026790895 -0.018939473
0002c0 1b 2a 88 3d 8c 19 f1 bd ec ae e0 bd dc 4a 7d 3d
       0.06648656 -0.11772451 -0.10970864 0.06183897
0002d0 c0 53 59 bd 8f 85 94 3d 7b d7 e7 3d 1e 6e 94 bd
       -0.053058386 0.07252037 0.113203965 -0.07247566
0002e0 7a 3d 0f 3d 23 07 13 3c 7b ad ec 3d 11 8c 70 bc
       0.034970738 0.0089738695 0.11556526 -0.014681832
0002f0 91 ac fd bc 2c 71 17 bd 1e 0b ae bd b2 8c a7 bd
       -0.030966075 -0.036973163 -0.08498214 -0.081811324
000300 5b 97 c7 3d 3f 53 96 bd f2 b6 5a bd 1b d4 75 3d
       0.09745666 -0.07340097 -0.053397126 0.060016733
000310 21 ca a3 3d 29 99 bc bb f0 63 09 3e 06 30 8d bd
       0.079975374 -0.005755563 0.1341703 -0.06893925
000320 33 db 1b be 7f 50 03 3d 06 ff cd 3d 27 65 03 3c
       -0.15220337 0.03205919 0.100584075 0.008019722
000330 fe c0 75 bd 1f fc 61 bd 1a 6c 62 be 55 9d 82 3d
       -0.059998505 -0.055172082 -0.2211155 0.06377665
000340 a7 3a c5 bd 11 db 59 3d 38 1b f4 3d 46 78 1d bc
       -0.09630328 0.053187434 0.11919254 -0.009611195
000350 e9 d9 e3 3d 5b 41 b1 bc 08 22 33 3d 34 0d 88 3d
       0.111255474 -0.02163761 0.043733627 0.06643143
000360 51 d4 b0 3d dc 0e d8 3d 1d 26 46 3c 83 37 24 bd
       0.08634246 0.10549709 0.012094048 -0.040092003
000370 8f e8 ff 3d 58 72 8c 3c d3 2a 02 be 12 e4 43 3c
       0.12495529 0.017144367 -0.12711649 0.011956232
000380 76 cc 49 be a0 79 9d 3d 76 5a 76 3d 87 5a 0d be
       -0.19706902 0.07689214 0.060144864 -0.13804065
000390 82 96 a4 3d 8f 61 27 3d 7c fb d2 bd 34 d0 ef 39
       0.080365196 0.040864524 -0.10301873 0.00045740756
0003a0 b8 d1 9d bc b5 b6 28 3e 7c 79 8c 3d 64 87 81 3a
       -0.01926504 0.16475947 0.06859109 0.0009882268
0003b0 68 eb d8 bd 08 07 54 bd 35 37 61 bc fb 70 82 bd
       -0.10591775 -0.051764518 -0.013746073 -0.063692056
0003c0 6c c1 8b 3c c8 2f 8a bd 39 0b 0d 3d a5 51 80 3d
       0.017060004 -0.06747395 0.03443453 0.062655725
0003d0 0b 78 ae bd e8 a8 5a 3b 93 07 14 3d ec 87 d2 bc
       -0.0851899 0.0033364836 0.036140036 -0.025699578
0003e0 93 dc 05 3e c1 74 1f bd f5 7a 95 bd 4d fb 66 3d
       0.13072424 -0.038929705 -0.07298843 0.056392003
0003f0 a0 f1 e0 3a b3 49 09 bc be 2b bb bd ef 40 78 3d
       0.0017161854 -0.008379388 -0.091392025 0.0606088

sigma_net.net.1.dense.bias f4 [64]
000000 59 87 db bc 05 b6 f7 bb 52 87 db bd a8 2f fa 3d
       -0.026797937 -0.00755954 -0.1071917 0.12216121
000010 79 c6 55 bd 85 7f 8f 3d be 23 48 3d ee 3a 9a bc
       -0.05219123 0.07006744 0.04886221 -0.018826928
000020 48 41 96 bd 0d 7b e2 3d af 1e c3 bb 04 3c 25 3d
       -0.0733667 0.11058626 -0.0059545855 0.04034044
000030 24 b8 ef bc 1f e2 73 3d 65 37 d7 3d 7e 5a 48 3d
       -0.02926261 0.059541818 0.105086125 0.048914425
000040 05 41 91 3d 8f 2e 2f bd 91 fd 28 bd 72 7a 62 3d
       0.070924796 -0.04276901 -0.041257445 0.055292554
000050 30 76 c3 3d 79 92 07 bd e5 53 45 3d 8b c0 02 3e
       0.09544027 -0.03309867 0.04817571 0.12768762
000060 fe 5f cc 3d 0b 62 62 3d 0a a7 ba bd 94 88 5a bd
       0.099792466 0.055269282 -0.091138914 -0.053352907
000070 20 98 a2 bb 09 ad 8c 3c 66 bc f9 3b 7e 4c 2e bd
       -0.0049619824 0.017172353 0.007621336 -0.042553417
000080 f3 20 95 bc 51 6c bb 3d 33 1e ea 3d 35 aa af 3d
       -0.018204188 0.09151519 0.11431541 0.08577386
000090 83 44 3f 39 e7 75 49 bd 9d e2 1d 3d a6 1c b6 3d
       0.00018240702 -0.049184706 0.038546193 0.08892183
0000a0 50 99 06 bd 27 f1 c9 bd 44 26 65 3d 89 62 c9 bd
       -0.032861054 -0.09860449 0.055944696 -0.09833247
0000b0 39 af 85 3d 58 cf a6 bd 89 22 bc bd 26 c6 02 3b
       0.06527562 -0.081450164 -0.091862746 0.0019954531
0000c0 63 54 9f bd 66 3d b8 3b f6 18 7c 3d 66 47 e8 3c
       -0.07779767 0.0056225536 0.061547242 0.028354358
0000d0 6b 64 a0 3d 51 0d 86 bb 34 be e9 3d 12 1c c8 3d
       0.07831653 -0.004090943 0.114132315 0.09770979
0000e0 db 8f 10 3d 64 27 ce bc 8b 2a 04 3e b5 04 be 3d
       0.03529344 -0.025165267 0.12906854 0.092782415
0000f0 69 12 90 3a a5 8b 94 3d 52 0c e9 3d 7d 85 be bc
       0.0010991815 0.072531976 0.11379303 -0.023257012

sigma_net.net.1.norm.weight f4 [64]
000000 df 55 72 3f 3b 8a 6c 3f b5 53 81 3f 9c c5 82 3f
       0.9466228 0.9239842 1.010367 1.0216556
000010 b2 81 76 3f 84 c8 7b 3f 07 d3 59 3f 74 1c 7e 3f
       0.9629165 0.9835284 0.8508763 0.99262166
000020 e7 10 82 3f e1 47 7e 3f 6e b2 69 3f a0 90 66 3f
       1.0161408 0.9932843 0.9128789 0.9006443
000030 06 c3 82 3f eb f3 8a 3f 79 e2 80 3f a0 76 80 3f
       1.0215766 1.0855688 1.0069114 1.0036201
000040 96 a2 7a 3f 7b b0 68 3f e1 ce 84 3f d3 a3 86 3f
       0.97904336 0.9089429 1.0375634 1.0518745
000050 89 71 73 3f 06 59 6b 3f 06 9b 89 3f c3 46 83 3f
       0.95095116 0.91932714 1.0750434 1.025597
000060 bd 19 80 3f 9f 73 7e 3f 8a 22 67 3f c3 f7 85 3f
       1.0007855 0.99395174 0.9028708 1.0466236
000070 da 19 77 3f 5f 2d 66 3f 5d 3e 6b 3f ef 3b 83 3f
       0.9652382 0.8991298 0.91892034 1.0252665
000080 30 a3 7a 3f b1 71 73 3f 9d 2a 81 3f 9e af 88 3f
       0.97905254 0.95095354 1.009113 1.0678594
000090 91 08 8b 3f c8 85 80 3f 4a ce 84 3f b1 90 76 3f
       1.0861989 1.0040827 1.0375454 0.9631453
0000a0 7e 99 8d 3f 51 8b 79 3f f4 ee 6b 3f 72 5b 7a 3f
       1.1062467 0.97478205 0.9216149 0.97795784
0000b0 39 df 79 3f f1 e0 84 3f 35 4c 81 3f b7 dd 6d 3f
       0.97606236 1.0381147 1.0101382 0.92916435
0000c0 c8 7a 6d 3f a5 1c 60 3f e6 ca 84 3f f2 fb 85 3f
       0.92765474 0.8754371 1.037442 1.0467513
0000d0 81 a6 87 3f 7c 22 78 3f 07 36 85 3f f9 4a 80 3f
       1.0597688 0.9692762 1.0407113 1.002288
0000e0 8b 99 6f 3f b5 65 6f 3f c4 cf 8a 3f 42 e3 81 3f
       0.9359366 0.9351457 1.0844655 1.0147479
0000f0 9f 9b 87 3f 5e 79 66 3f 3a 37 7a 3f 63 76 8a 3f
       1.0594367 0.9002894 0.9774052 1.0817379

sigma_net.net.1.norm.bias f4 [64]
000000 2d bd b0 ba 8c 07 91 bd 7c 7f 7b 3c 15 a3 96 3b
       -0.0013484113 -0.070815176 0.015350219 0.0045970776
000010 62 c6 1c bd e4 59 f6 b9 ba 79 94 bd bc d0 54 3d
       -0.03827513 -0.0004698775 -0.0724978 0.051956877
000020 02 a4 b2 bc 23 02 84 bc c3 cc 87 bc 0b 95 a9 3b
       -0.02180672 -0.0161143 -0.01657713 0.005175238
000030 a8 02 a8 3c f3 11 03 3c bb 22 2b 3c f3 00 d8 bc
       0.02050908 0.007999885 0.010445292 -0.02636764
000040 16 16 92 bb 1f df 19 3d 9a 71 0c be a6 8f 1f bd
       -0.0044581993 0.0375663 -0.1371521 -0.038955353
000050 be 0f cc bc b6 52 16 bd 03 bf 01 3d 3d d5 5a 3d
       -0.02490985 -0.036699973 0.031676304 0.053426016
000060 5f bd 00 bc c4 c4 d3 bc 19 7d d8 bc 78 c3 dc 3a
       -0.00785765 -0.025850661 -0.026426839 0.0016842922
000070 74 69 cc bd b2 c2 55 bd 85 34 b3 bd cd 51 65 bd
       -0.09981051 -0.05218763 -0.08750252 -0.055986214
000080 c3 77 90 3c 45 01 a2 3b a4 54 8a 3c b7 1b 12 3d
       0.017635232 0.004943999 0.016886063 0.035670962
000090 ce 11 4b bd 30 f4 3c bc e1 9c 96 3c c0 45 0e bd
       -0.049577527 -0.011532828 0.018385353 -0.034734488
0000a0 f8 b3 08 3d bd 8f d7 bc 22 67 d9 bc dd 8d da bd
       0.033374757 -0.026313657 -0.026538435 -0.106715895
0000b0 e8 74 46 ba 44 7d d1 bc 4e 47 d7 3c 5c 54 b0 bb
       -0.0007570521 -0.025572427 0.026279118 -0.00538115
0000c0 1d e6 ac bd f2 aa a0 bd a1 bb 10 3d d1 6d 03 3b
       -0.08442328 -0.07845105 0.035335187 0.002005447
0000d0 f4 81 97 3b 89 e4 ce bb 90 4f 1d 3d 0f 7a e6 bb
       0.004623646 -0.0063138646 0.038405955 -0.0070335935
0000e0 f2 03 cb bc d4 7f 61 3d f1 bd 16 3d 13 10 b1 3b
       -0.024782155 0.055053547 0.036802236 0.0054035275
0000f0 60 3e 47 bd a6 00 17 bd eb c0 d5 3a aa b3 9d 3c
       -0.04864347 -0.036865853 0.0016308104 0.01925071

sigma_net.net.2.dense.weight f4 [64, 64]
000000 91 32 0c 3e dc 82 5c bd 26 1b 31 3d 73 fc 84 3d
       0.13691165 -0.053835735 0.04323878 0.06493463
000010 d7 95 a3 3d df 92 50 3d 02 1d 05 3e 8a 82 6a 3d
       0.07987564 0.050921317 0.12999347 0.057253398
000020 c6 17 50 3e fd 50 db bd 37 92 6b bd f7 cc 82 3d
       0.20321569 -0.10708807 -0.05751249 0.0638675
000030 80 8b e1 bb 91 5e 67 3d 97 0a 60 bd 00 20 f8 3d
       -0.006883085 0.05648667 -0.0546976 0.121154785
000040 35 2e c0 3c d2 55 2e 3e 6b 18 3b 3b 3a 69 14 3b
       0.023459533 0.17024925 0.002854849 0.0022645728
000050 43 bb 02 bd 3c 66 92 bd cb 46 9b bc a6 df 37 bd
       -0.031916868 -0.07148406 -0.018954655 -0.044891022
000060 d7 7e 31 bd cd 92 93 3d c5 5f 7d 3d 02 23 40 bd
       -0.043333855 0.072057344 0.06185891 -0.046908386
000070 23 ba 13 be 56 03 dd 3d 01 89 8d bc 7e 02 48 bd
       -0.14426474 0.10791652 -0.017277243 -0.0488305
000080 9d 9c 54 bc f6 0b 73 bd 56 2a cb bd c1 dc e0 bd
       -0.012976793 -0.05933758 -0.09920184 -0.109796055
000090 32 f3 d5 bc 5f 0f 6d 3d 95 7d 93 bd 8b fb 00 3e
       -0.026116941 0.057875987 -0.07201687 0.12595956
0000a0 38 f3 14 be 24 fb 2d 3c 3b 48 8b bd bd 6b aa bd
       -0.14545906 0.010618959 -0.06800886 -0.08321331
0000b0 0d 21 1b 3d 9b 16 2d bd e7 0c 23 3d 35 95 c7 bd
       0.037873317 -0.042257886 0.039807227 -0.09745256
0000c0 bd 21 a4 3c fc 2d c9 bc f6 4e 81 3c 6b 21 a4 3d
       0.020035619 -0.02455806 0.015784722 0.080141865
0000d0 0e 6f b3 3d 2c f7 a3 bd c1 fa 01 3a d8 36 93 3d
       0.087614164 -0.08006129 0.0004958325 0.07188195
0000e0 43 9e 69 bc bf 25 36 bd 8a 06 62 be 73 34 2b 3b
       -0.014258924 -0.04446959 -0.22072807 0.0026123791
0000f0 cc 17 92 3d 27 3f 0b bd 77 d1 5a 3d b2 c3 68 bd
       0.07133445 -0.033995774 0.053422417 -0.056827255
000100 ce 89 0c 3e c1 4e 02 be 70 f5 0e 3d bb 97 f7 bd
       0.13724443 -0.12725355 0.034902036 -0.12089487
000110 7f 3d d1 bd d1 a0 e7 bb c7 6d 75 3d f7 88 28 3c
       -0.102168076 -0.0070687314 0.059919145 0.010286561
000120 b6 10 0a 3e c2 27 06 bd 3a ab 92 3c 92 34 06 bc
       0.13482937 -0.03275276 0.017903913 -0.008191245
000130 5d 3f 0d 3e a6 9f 14 3c ff 7a c7 3d fe 9d 2c be
       0.13793702 0.009071266 0.097402565 -0.16857144
000140 9c a1 30 3d 7b 7d 90 3c a5 56 68 bd 16 95 e9 bd
       0.043122873 0.017637959 -0.056723256 -0.11405389
000150 93 99 81 bd 50 86 13 bd 7a 71 33 3c 64 3a ab 3d
       -0.0632812 -0.036016762 0.010952348 0.083607465
000160 61 39 10 3d 2c 00 ad bd 6b f5 91 bd 3c 20 a2 bd
       0.03521097 -0.084472984 -0.07126888 -0.079163045
000170 43 f0 d2 bb 53 3b 96 3d 43 3f cd 3d 4e 87 44 bd
       -0.006437333 0.07335534 0.10021832 -0.0479806
000180 b5 0a 0b bc 15 b1 cb bc de 27 dc 3d 84 89 87 bd
       -0.0084864395 -0.024864713 0.107497916 -0.06618026
000190 9d 72 28 bc 4e 65 1b bc 4a 8a 29 3d 77 07 80 bc
       -0.010281232 -0.009484602 0.04139165 -0.01562856
0001a0 45 ad 19 bd 35 ae 24 3c b2 fd 7f bb 26 1f fd bd
       -0.03751876 0.0100513 -0.0039061126 -0.12359457
0001b0 f0 24 0f be 95 72 db 3d fd 38 a4 bb 1a eb 37 3d
       -0.13978934 0.10715214 -0.0050116763 0.044901945
0001c0 8b db 6e bc d4 f8 58 3d e0 12 45 3c 63 8c 84 3c
       -0.01457871 0.052971676 0.012028426 0.016180223
0001d0 31 09 a2 3d 3d a3 08 3e 7e de c9 bd d9 c0 e4 3d
       0.07911909 0.1334352 -0.0985689 0.11169595
0001e0 f7 4f b4 bd fe 13 4a bc c3 30 0c be ed 86 df bd
       -0.088043146 -0.012333868 -0.13690476 -0.10914407
0001f0 b7 ec 3b bb 7b d1 5a bd 98 23 8d bd 81 f8 c7 3d
       -0.0028675029 -0.053422432 -0.068915546 0.09764195
000200 94 f8 52 bc 4e e9 9e bc b2 37 94 bc 03 78 08 3d
       -0.012876648 -0.019398358 -0.018092964 0.033317577
000210 59 b6 de 3d 57 d1 cf bd 29 52 16 be d2 8e 07 3d
       0.10874624 -0.1014735 -0.14679779 0.03309519
000220 32 b8 3d 3c 2d 38 b9 bd ba 62 38 3d 49 2a c4 3d
       0.01157956 -0.09043918 0.045016028 0.09578378
000230 8d 89 b1 3d c6 7a ab 3a 88 19 33 3b 94 3e 11 be
       0.08668814 0.0013082854 0.002732845 -0.14184028
000240 60 d9 cf 3c 71 57 42 3d 60 1c cb bb 60 6d 19 3e
       0.025372207 0.047446672 -0.006198451 0.1498313
000250 5a 54 9c 3d c9 a9 50 bd 7c 03 fc 3d bd 3c 4d bd
       0.07633276 -0.05094317 0.12305352 -0.050106753
000260 8b b3 cf bd 18 a2 39 bc f2 9f d5 bd 0e 01 df bd
       -0.10141667 -0.01133015 -0.10430898 -0.10888873
000270 15 79 c3 bd 84 70 1b be 58 9e cc bc 57 b1 bd bd
       -0.09544579 -0.1517964 -0.024977848 -0.092623405
000280 71 5e 87 3d d2 a5 50 bc 14 16 f5 ba 01 fc a0 3d
       0.0660981 -0.012734847 -0.0018698596 0.07860566
000290 43 81 b5 3d 7f a5 ba 3d 9a 08 72 bc d0 c0 a6 3c
       0.08862545 0.09113597 -0.014772559 0.020355612
0002a0 d9 61 26 3e ba 24 a0 3d d4 ee b9 3d 7d a2 b5 3d
       0.16248263 0.07819505 0.09078756 0.08868883
0002b0 ae 3e 05 be b1 6f 4f 3d 74 a2 d4 3c bf 6c 1e bd
       -0.13012192 0.050643627 0.02595637 -0.038677927
0002c0 4c cd b4 3d fb 3e c4 bd e9 b3 9a 3d 3d a0 3a be
       0.0882822 -0.09582325 0.075538464 -0.18225189
0002d0 c2 4a c3 3c a4 06 46 3d 89 95 8a 3c 3a 14 3e bd
       0.023839358 0.048346177 0.016917007 -0.04640601
0002e0 39 b4 37 bd 5b 8e 5b bd 8e ec f7 bc 04 6a 77 bc
       -0.044849608 -0.053602558 -0.030264165 -0.01510096
0002f0 f0 67 9a 3d bc b6 d6 3c 9d f4 68 3d e9 d6 56 bd
       0.07539356 0.026210181 0.056873906 -0.052451048
000300 6a 5d 9e 3c b3 e5 35 3b 1b ef f9 3d fc 0f d6 3c
       0.019331653 0.002775532 0.12203809 0.026130669
000310 e6 38 8c 3c 9f f7 21 be 09 5d 7e bd 74 33 b1 3c
       0.017116975 -0.15817116 -0.062100444 0.02163098
000320 00 60 16 be cf c1 12 3e 69 45 82 bd cb 9f 6d 3d
       -0.14685059 0.14331745 -0.06360895 0.05801372
000330 11 8e 13 be c4 2a 42 3e 98 84 2b be cd 83 03 3e
       -0.14409663 0.18961626 -0.16749799 0.12843247
000340 c1 57 fd bd 84 da 9d 3d 64 70 b7 bc 5f a5 c8 3c
       -0.12370253 0.07707694 -0.02239246 0.024492918
000350 46 48 1b 3c 1f 70 cd 3b e6 d9 48 3d 16 6e 27 3d
       0.009477681 0.0062694694 0.04903593 0.04087647
000360 3f ab 1e 3e d5 05 4b 3b e4 24 10 3d df 09 11 be
       0.15495013 0.0030978818 0.03519143 -0.14163922
000370 04 8c 0a 3d 30 58 db bc 25 a8 3e 3d e9 5c c2 3d
       0.033824936 -0.02677545 0.046547074 0.094903775
000380 aa a6 85 3d a5 3f bf 3d 8b 62 09 be 9e 1a f9 3c
       0.06525929 0.09338311 -0.13416497 0.0304082
000390 e1 44 38 bd a4 26 0d 3d 6b af fc bd 50 72 14 3e
       -0.044987563 0.03446068 -0.12338146 0.14496732
0003a0 70 a0 70 be f4 57 b0 bd 20 80 ff 3d ef d7 01 be
       -0.23498702 -0.08610526 0.1247561 -0.12680028
0003b0 86 95 5c 3c b9 72 24 bd 46 c2 ee bd a4 63 a7 3d
       0.013463384 -0.04014847 -0.116581485 0.08173302
0003c0 4b 0b 0d 3e d7 a8 84 bc d3 59 71 bd c4 32 23 3e
       0.13773839 -0.01619379 -0.058923554 0.15937334
0003d0 8c aa d0 3d 2e 9a c1 3d 3b f1 23 be 99 7e 15 3e
       0.10188779 0.094532356 -0.16009991 0.14599074
0003e0 32 8b 73 bd 44 d9 61 3d 87 4c f1 bd ee 01 38 3e
       -0.05945892 0.05513884 -0.117821746 0.17969486
0003f0 d5 ca c3 bd 9e d0 e4 bc 1a 47 b0 3d ca 3d e3 bd
       -0.095601715 -0.027931508 0.086073115 -0.1109577

sigma_net.net.2.dense.bias f4 [64]
000000 bb 7c 25 bd 77 07 c0 bc 61 4e 35 3d 71 7b 3b bb
       -0.040402155 -0.02344106 0.0442642 -0.0028607512
000010 46 b8 b7 3c 1f 1f cc 3d 21 6f 86 3d a1 91 d1 3d
       0.022426736 0.099668734 0.06564165 0.10232855
000020 07 70 84 3d 09 0a 93 bd e9 a6 c7 bc d6 f2 93 bd
       0.0646668 -0.071796484 -0.024371581 -0.07224052
000030 40 89 d2 bc 64 6a 48 3c 36 07 ab bd f5 47 01 be
       -0.025700212 0.012232397 -0.08350985 -0.12625106
000040 bb 3c 8d 3d ce 77 d4 bc b2 3b 29 be 98 8f a6 bc
       0.06896349 -0.025936034 -0.16526678 -0.020332143
000050 cb 8f d9 bd 51 2a 1e bd ac f8 d9 3d 10 8c d0 bd
       -0.106231295 -0.038614575 0.106431335 -0.10182965
000060 e9 eb 20 bd df be ee 3c 28 89 0d be d7 3e 12 bd
       -0.03928748 0.029143749 -0.13821852 -0.03570446
000070 ce bf db 3d 8f af 68 bc 22 2d 5a 3d 91 8c 78 3d
       0.10729943 -0.014202013 0.0532657 0.06068093
000080 2c 95 9c bb 8e 2f 02 be 99 bb 33 bc c5 a7 1a 3d
       -0.004778525 -0.12713453 -0.01097002 0.037757654
000090 c5 53 34 3c 16 bc e7 3d 4c 55 37 be 83 78 a9 3c
       0.0110063 0.113151714 -0.17903632 0.020687347
0000a0 c9 99 a9 3d 27 1a 7e 3d 8d 38 64 bd 2d 90 0c 3d
       0.08281285 0.06203666 -0.055717994 0.034317184
0000b0 df 5d 71 3d 4d 92 21 be 62 4e e9 3b bc 8b 11 bc
       0.058927413 -0.15778466 0.0071199397 -0.008883413
0000c0 b7 83 bf bd e9 09 b5 bd 89 29 ce 3d 5a 16 c9 3c
       -0.093512945 -0.08839781 0.10066516 0.02454679
0000d0 69 77 a8 bd 25 3b b9 bb 61 f5 b9 bc cc 7e b4 bd
       -0.08225901 -0.0056528025 -0.022700014 -0.08813247
0000e0 8a dc 2c bc f4 56 90 3d 50 e5 08 3e 45 30 08 3e
       -0.0105506275 0.07047835 0.13368726 0.13299663
0000f0 b6 45 64 bd df 04 56 3d b1 02 6c bc 87 aa bf 3d
       -0.055730544 0.05225074 -0.014404939 0.093586974

sigma_net.net.2.norm.weight f4 [64]
000000 94 d0 72 3f 65 bf 80 3f d3 1a 83 3f 80 cd 80 3f
       0.94849515 1.0058409 1.0242561 1.0062714
000010 55 08 6f 3f 66 e1 7a 3f 5c 00 7f 3f c9 ac 78 3f
       0.9337209 0.9800018 0.99609923 0.9713865
000020 0b a4 87 3f 5d 51 81 3f de 90 73 3f 6d b2 75 3f
       1.0596937 1.0102955 0.95142925 0.9597538
000030 62 f0 7b 3f eb eb 82 3f 82 c4 80 3f 48 e5 8c 3f
       0.9841367 1.0228246 1.005997 1.1007471
000040 74 aa 8a 3f cb 38 7c 3f 14 fe 83 3f bf cf 6d 3f
       1.0833268 0.9852416 1.0311913 0.9289512
000050 9b 7c 80 3f e1 07 82 3f 6b ad 79 3f 54 99 76 3f
       1.0038027 1.0158654 0.9753024 0.9632771
000060 45 78 76 3f d0 63 82 3f 36 e0 6c 3f 34 2d 69 3f
       0.96277267 1.018671 0.9252962 0.910846
000070 9e 6c 6e 3f 97 a9 82 3f b0 4a 83 3f cb 7d 84 3f
       0.93134487 1.0208005 1.0257168 1.0350889
000080 27 7c 7f 3f 19 1a 81 3f a2 a3 7a 3f f9 d7 86 3f
       0.99798816 1.0086089 0.97905934 1.053466
000090 c6 41 6c 3f df 43 7b 3f 28 0f 77 3f 42 dd 97 3f
       0.9228786 0.9815044 0.965075 1.1864398
0000a0 c0 14 6d 3f 8d ac 7a 3f f6 f5 6d 3f a8 88 6d 3f
       0.92609787 0.9791954 0.9295343 0.92786646
0000b0 05 50 72 3f e4 76 86 3f e4 dc 72 3f 5d 71 87 3f
       0.9465335 1.0505033 0.948683 1.0581471
0000c0 6a 9d 7a 3f af 33 66 3f c2 be 84 3f 78 6d 7c 3f
       0.97896445 0.8992261 1.0370715 0.98604536
0000d0 95 57 6c 3f bf cc 7d 3f 19 5d 78 3f d2 3b 7b 3f
       0.9232114 0.9914054 0.97017056 0.98138154
0000e0 9c 5e 85 3f 11 b1 72 3f 52 a6 83 3f 34 f4 79 3f
       1.0419497 0.9480143 1.0285132 0.9763825
0000f0 bc 1e 74 3f 3b 64 77 3f cf 29 74 3f ee 78 72 3f
       0.95359397 0.96637315 0.95376295 0.94715774

sigma_net.net.2.norm.bias f4 [64]
000000 43 bf ec bd 88 17 59 bd 50 24 97 bd 2c 79 08 3c
       -0.11559918 -0.053000957 -0.07379973 0.008329671
000010 b9 2c 00 bd 62 64 b6 3a fa 89 16 bd 48 f3 40 3c
       -0.03129265 0.0013915414 -0.03675268 0.011776753
000020 2f c9 d1 3c 23 30 43 bc 18 8a 8a bd cf b5 0d 3c
       0.025608627 -0.011913332 -0.067646205 0.008649304
000030 a4 c0 ad bc 8b 37 5f bc 20 f5 bd bc cb ef 9f bd
       -0.021210022 -0.013624082 -0.023188174 -0.07809409
000040 77 8c ea 3c 54 01 b3 bb 09 20 e1 bc f9 90 84 bd
       0.028631432 -0.005462805 -0.027481096 -0.06472964
000050 77 4b 14 bd e6 94 30 3c e7 d1 b9 3b 74 d6 1c 3c
       -0.03620478 0.010777688 0.0056707743 0.009572614
000060 04 98 94 3c 62 48 08 bd 9b 30 90 bd ec c3 71 bd
       0.018138893 -0.033272155 -0.07040521 -0.059024736
000070 d9 c1 59 bd 0a 8a bf bd 10 90 2c bc a5 3e a1 bd
       -0.053163383 -0.09352501 -0.010532394 -0.078732766
000080 29 ad 24 bd 3f d3 0a bd d8 de 30 3c f1 33 04 3d
       -0.0402042 -0.033892866 0.010795318 0.032276098
000090 cc 1f 73 bd 96 15 b5 bb 1b 90 45 bd 9e 84 bb 3c
       -0.059356496 -0.005526255 -0.048233133 0.022890385
0000a0 9e 28 0c bd ce 80 6a bc 16 74 1b bd 52 8e b6 bd
       -0.034218423 -0.014312936 -0.037952505 -0.08913864
0000b0 67 a1 b1 bc b3 9b 01 be 8a e7 0b bd 3c 39 ed 3c
       -0.021683408 -0.12657051 -0.03415636 0.028957956
0000c0 69 60 21 bd c7 ad 9d bd f7 f9 ad 3c ca 86 e2 bc
       -0.039398585 -0.07699161 0.021237357 -0.027652163
0000d0 26 c9 c6 bd ee ca b2 3d 29 22 67 3c 87 05 14 bd
       -0.09706335 0.08730112 0.0141072655 -0.036138084
0000e0 6f f8 f3 3c d8 bf b8 bc 92 76 93 3c 88 ae f8 3c
       0.029781548 -0.022552416 0.018000875 0.03035666
0000f0 57 b0 68 bd 29 70 8a bc 29 03 10 3c ce 72 d4 bc
       -0.056808796 -0.016899185 0.008789816 -0.02593365

sigma_net.net.3.dense.weight f4 [64, 64]
000000 74 03 4d bd 5f 09 2b 3d f3 9b 32 bd 4c 74 66 3d
       -0.05005212 0.041756984 -0.043605756 0.056263253
000010 6d e2 80 3d c3 f6 30 3d ec 73 b3 bb 6b d0 2c 3d
       0.06293187 0.04320408 -0.0054764654 0.04219095
000020 34 91 1a be fb 26 32 bc c0 2a ec bc fc 12 2f 3c
       -0.15094453 -0.0108735515 -0.028828979 0.010685679
000030 06 80 19 bd 5f 1e 75 3d 7b 14 b2 3d cd bc 1f bb
       -0.03747561 0.059843417 0.086953126 -0.0024374009
000040 06 35 cc bd ff 45 b6 3d 19 f2 a4 bd 0b e9 06 3c
       -0.09971051 0.089000694 -0.08053989 0.008234273
000050 a5 47 b1 3c dc 8a 12 bd 5f eb 2b be ed fb 4f 3d
       0.021640608 -0.035776958 -0.16789006 0.050777365
000060 41 9c 70 3c 95 6b a5 3d 63 24 01 be b4 e7 8d bd
       0.014685691 0.0807716 -0.12611537 -0.069289595
000070 2f b0 9d bd 52 fa 83 bd cc 4c 3e be dd 42 25 3e
       -0.0769962 -0.06444229 -0.18583983 0.16138788
000080 5c 76 7e 3e 54 03 47 3d 8c eb bd 3d d8 47 02 bd
       0.24849838 0.04858716 0.092734426 -0.031806797
000090 ad 0e b5 3c 68 b1 e9 bd 53 a5 2e bd 83 b6 fd 3d
       0.022101725 -0.11410791 -0.042638134 0.12388327
0000a0 ac e0 5a bb 55 fa c6 bd 23 35 93 3d b9 7a 70 3c
       -0.0033398075 -0.09715716 0.071878694 0.014677697
0000b0 60 cc cb 3d d7 1b 90 3d a0 15 39 bd 16 a0 36 bd
       0.09951091 0.0703656 -0.04518664 -0.044586264
0000c0 a3 88 29 38 53 8b b9 bd fc d4 fd bd 1e f5 94 3d
       4.0419993e-05 -0.09059777 -0.12394139 0.07273315
0000d0 87 8d 17 bd c6 94 06 3d 2e 0a bb bd ad f2 5b bd
       -0.037000205 0.032856725 -0.09132801 -0.05369823
0000e0 ed b0 06 bd 87 6c 3c bd 3a 41 37 bd b6 96 ee 3d
       -0.032883573 -0.046001937 -0.04473994 0.116498396
0000f0 b0 5a e4 bb fa 0d df 3d 9e ef 46 3d da 3b 97 bd
       -0.0069688186 0.10891338 0.04856836 -0.07384463
000100 a0 23 31 3d 57 e1 f6 bd cf ff ec bc 91 12 8d 3c
       0.043246865 -0.12054699 -0.028930573 0.017220767
000110 5a c9 79 bd 2c d9 2f 3d c4 b7 ba bd ba 13 bd 3d
       -0.06098304 0.04293172 -0.09117082 0.09232278
000120 55 81 5c bc 77 e6 64 bc 60 f9 8a 3d f4 86 a7 bc
       -0.0134585695 -0.013970963 0.06785846 -0.020450093
000130 f4 5a d5 3d dc 52 7c bc bd d7 fc bd de 2a 91 bd
       0.104177386 -0.015400615 -0.12345836 -0.070882544
000140 47 46 fe bd 9c 6e 9a bd 56 cd 06 be 76 06 ab bc
       -0.12415748 -0.07540628 -0.13164267 -0.020877104
000150 ab 98 c4 bd 6a 10 96 bd d6 0a b9 bd fd 30 e6 3c
       -0.095994316 -0.073273495 -0.0903527 0.028099531
000160 5e 16 1a bd 45 2d 84 3d c1 c0 21 bc 8d 8b 27 bc
       -0.037618987 0.06453947 -0.009872616 -0.010226143
000170 a7 4c 83 bc 60 13 88 3d c5 4b 89 bd 29 ed 68 3c
       -0.016027762 0.066443205 -0.06703905 0.0142167
000180 80 3f 11 3e 08 17 3c bd bc 2b 00 3c 92 26 e5 bd
       0.1418438 -0.0459204 0.007822927 -0.11188997
000190 0a 90 c9 3c 74 50 d5 bd 76 6c 17 be 28 de c6 bd
       0.024604816 -0.10415736 -0.14787468 -0.09710342
0001a0 79 72 e1 bb 81 73 75 bc 7a 00 0a 3e 4e d0 a2 3d
       -0.0068801013 -0.014981152 0.13476744 0.07949887
0001b0 ec cb 94 3d 26 a1 7d bd 26 f7 bb bd 88 4b 50 bd
       0.072654575 -0.06192126 -0.09177999 -0.050853282
0001c0 06 d0 7a bd 35 55 a3 bd 92 b0 11 bd 4f 9e 04 3e
       -0.061233543 -0.07975236 -0.03556878 0.12951015
0001d0 0c 16 77 bd 39 47 1a be 5c 29 6d bd cb 4d 1f 3e
       -0.06032376 -0.15066232 -0.05790077 0.1555702
0001e0 77 90 69 bd a8 9f 50 bd 0e d3 9c bd ad b8 79 bd
       -0.057022538 -0.05093351 -0.07657443 -0.060967136
0001f0 02 65 88 3d 16 16 c0 3c f8 30 4d 3c 17 75 a5 3d
       0.06659891 0.023448031 0.012523882 0.08078974
000200 04 c9 80 3d bc 18 ef 3c f6 30 a2 bd cd 77 25 bd
       0.06288341 0.029186599 -0.07919495 -0.040397454
000210 a4 65 a4 bd 34 82 40 3d 13 75 5a 3c c6 ca 1f bd
       -0.08027199 0.04699917 0.013333577 -0.03901174
000220 8f 35 22 b8 c4 38 32 be 24 be 13 3e 56 06 03 3e
       -3.867369e-05 -0.17404467 0.14428002 0.12795386
000230 7b 6d 73 bd e5 7c 51 3d f2 41 e7 bd df a0 2c 3c
       -0.05943058 0.0511445 -0.11291875 0.0105364015
000240 ce 2c 8d 3e 1e 00 5f 3d 3d b2 14 bc 3b 2d 89 bd
       0.27573246 0.05444347 -0.009075698 -0.0669808
000250 8a 53 eb bd 58 ad 8e bd 2b 4e 43 bd b0 64 2a bd
       -0.11490543 -0.069666564 -0.04768197 -0.04159993
000260 97 cf 24 3d 79 a3 08 be de f8 ae ba f7 54 05 bd
       0.040237036 -0.1334361 -0.0013349315 -0.032551732
000270 14 bb fe 3c c7 56 ac bd 4f fe 7b 3d 95 23 24 3d
       0.031095065 -0.08414989 0.061521824 0.040072996
000280 6a 23 10 bd c2 6e bf bd b7 01 08 3c 10 58 e3 3c
       -0.035190023 -0.09347297 0.00830119 0.027751952
000290 05 44 4e bd 28 87 f7 3d e2 9c 08 3d ea 11 9e 3d
       -0.050357837 0.12086326 0.03335274 0.077182606
0002a0 54 a2 02 be b3 ab 82 bb 1d d9 09 3d be a3 60 bd
       -0.12757236 -0.0039877533 0.03365432 -0.054843657
0002b0 d4 e6 ca bc dd b4 1c be 53 3e f0 bd 25 ba 16 3d
       -0.02476827 -0.15303369 -0.117306374 0.036798615
0002c0 d2 4a c1 bd 1b b1 24 bd ff c3 16 3e 48 70 82 3d
       -0.09438099 -0.040207963 0.14723204 0.06369072
0002d0 c5 ab db bd 6b f5 49 3e ca 31 7d bd ad be c8 bd
       -0.10726122 0.19722526 -0.06181506 -0.098019935
0002e0 c1 17 ec bc 45 8c 63 3a 78 14 49 3e 58 99 2c bd
       -0.02881992 0.00086802646 0.19636714 -0.042138427
0002f0 bc 17 b1 bd f2 41 c7 bc 37 bf 7e 3d 3e 26 18 3d
       -0.08647105 -0.024323437 0.062194075 0.037145846
000300 ba c2 9f 3d 11 1d 1d be 81 86 9e bd c6 a8 fc 3d
       0.07800813 -0.15343119 -0.07740498 0.123368785
000310 96 55 da bd 0b 11 14 bd a7 52 d5 bd f9 39 bb bd
       -0.106608555 -0.036149066 -0.10416155 -0.09141917
000320 28 2d 00 be d9 56 96 3d e0 3d 42 bc 3a 02 a7 bd
       -0.12517226 0.073407836 -0.011855572 -0.081547216
000330 2f 30 e7 bd 11 3f 2c 3e bb f6 3e bd 1c f1 f8 bc
       -0.11288487 0.16820933 -0.04662202 -0.030388407
000340 e8 98 df bd 82 76 99 3d 7a 12 2a bd 4e e7 a1 bd
       -0.109178364 0.07493307 -0.041521527 -0.07905446
000350 5c 49 8c bd ed 02 2b be 15 61 ef ba 40 39 9c 3b
       -0.0684993 -0.16700335 -0.0018263186 0.004767567
000360 18 2b 9e bc b4 4f 18 3e 9b 4c d9 bd a7 a7 d2 bd
       -0.019307658 0.14874154 -0.106103145 -0.102858834
000370 2d 46 6b bd 30 2f 33 bd f0 28 79 3d 51 9f 07 3e
       -0.05743997 -0.043746173 0.060830057 0.13244368
000380 36 29 5c bd 91 8e f7 3c f4 9b 2f be 3f 1b 5e 3d
       -0.05375024 0.030219348 -0.17149335 0.054225203
000390 41 11 b8 bd 1d e6 5c 3c 07 ac 10 be 3c f8 db bd
       -0.08987666 0.013482598 -0.14128123 -0.10740706
0003a0 87 35 76 bc 5b 12 a7 3d 71 1e 0b 3e 64 c7 cb bb
       -0.01502741 0.08157798 0.13585831 -0.0062188376
0003b0 61 2c dc 3c 42 ea 1b 3c d0 9c 98 bd 77 42 ea bd
       0.02687663 0.009516301 -0.074517846 -0.114384584
0003c0 47 9a 3e bd 67 9d 48 3c 2d ad 80 3c 87 a4 01 3e
       -0.04653385 0.012244559 0.015707577 0.12660418
0003d0 9d 06 4b 3c 84 f6 3e be 15 a9 a5 3d 43 52 b7 3c
       0.012391713 -0.18648726 0.080888905 0.022378093
0003e0 c4 92 0a 3e 1b 9d 06 bd 6e 86 15 be 3c ad 3a 3d
       0.13532549 -0.03286467 -0.14602062 0.045575365
0003f0 5f 62 bb 3d d5 85 cc 3d 3a d7 ae 3d da 34 58 3d
       0.09149622 0.09986464 0.08537145 0.05278478

sigma_net.net.3.dense.bias f4 [64]
000000 86 ba 1a be 5f 9c 08 3e c8 a5 f3 3d 59 2e ce 3c
       -0.15110216 0.13340901 0.11896855 0.025168585
000010 49 cd 34 3d ac 17 ed 3d f6 cf 28 be 46 aa 71 3c
       0.044141088 0.11576781 -0.16485581 0.014750069
000020 39 4b 25 3e bb 35 ff bd 73 cc 9c bb 7f 81 7a bc
       0.16141976 -0.1246142 -0.0047851144 -0.015289663
000030 0c 3f 16 3d a9 76 4e 3c 6d b0 0f bb 7a f4 08 3c
       0.03668122 0.012601533 -0.0021925226 0.008359069
000040 10 bd 8c bd d7 cd 98 3d 35 73 fe bd ae d4 18 be
       -0.06871998 0.07461136 -0.12424318 -0.14924881
000050 0d 8c 00 bd 8e f4 8e bc 14 0d a4 3d 3b 80 86 bd
       -0.031383563 -0.017450597 0.08010307 -0.06567427
000060 0c 92 db 3d b2 34 c2 bd 80 6e dd bc fd 80 9c bd
       0.107212156 -0.09482707 -0.02703023 -0.0764179
000070 1b 78 8e 3c 05 95 be bd 0d 5c 97 bc 23 27 a8 3d
       0.017391255 -0.09305767 -0.01847651 0.0821059
000080 a1 4b 40 3d 6b 55 aa 3d 75 df b9 3d e1 91 c9 3d
       0.046947125 0.083170734 0.09075824 0.09842277
000090 1b 54 c5 3c d5 e4 d4 bd 23 3e d2 bd d2 24 d5 3d
       0.024087956 -0.10395209 -0.10265758 0.104074135
0000a0 de 73 1e bc d3 c2 16 3d 72 f9 8a bc 01 13 34 3d
       -0.00967118 0.036806893 -0.016964648 0.043963436
0000b0 00 2b 8e bd 3f ce 15 be 22 1a 87 3d 2f 27 b9 3d
       -0.06941795 -0.14629458 0.06596781 0.09040677
0000c0 0b e5 80 3d f4 13 e9 bd 81 e9 89 bd 0d 20 5e bb
       0.062936865 -0.11380759 -0.067339905 -0.0033893615
0000d0 e6 5a c0 bd 25 98 aa 3c 9d 8f be 3c 3d ff 12 bd
       -0.093923375 0.020824501 0.02326184 -0.035887945
0000e0 54 d8 8e bc 0f 3b ba 3d fa 3c 08 bc 98 35 58 3c
       -0.017437138 0.09093296 -0.008315319 0.0131963715
0000f0 90 12 00 bd 0d 68 1b bd d7 ee 01 3e 81 0d 07 3d
       -0.031267703 -0.037941027 0.12688766 0.032971863

sigma_net.net.3.norm.weight f4 [64]
000000 e1 8e 6d 3f 09 87 7b 3f 08 19 83 3f fa 04 85 3f
       0.9279614 0.9825292 1.0242014 1.0392144
000010 10 be 80 3f 45 6e 80 3f ea 8d 82 3f 3f 34 71 3f
       1.0058002 1.0033652 1.0199559 0.94220346
000020 86 d9 7f 3f 9c 54 80 3f c0 cf 86 3f 9f 27 81 3f
       0.9994129 1.0025821 1.053215 1.0090216
000030 58 cc 65 3f fe 8d 80 3f c8 d2 76 3f 42 f0 88 3f
       0.8976493 1.0043333 0.96415377 1.0698321
000040 5b 87 81 3f a0 b5 7c 3f 1a 35 82 3f 9a 24 7c 3f
       1.0119432 0.9871464 1.0172455 0.9849335
000050 72 a2 7c 3f a6 42 87 3f 2f d8 8a 3f d6 ca 77 3f
       0.9868537 1.0567214 1.0847224 0.9679388
000060 98 07 67 3f db 84 76 3f 55 e3 85 3f a5 ba 84 3f
       0.9024596 0.9629647 1.0460001 1.0369459
000070 fc ba 66 3f b4 6f 76 3f 1a 1b 81 3f 26 bd 7a 3f
       0.90129066 0.96264195 1.0086396 0.9794487
000080 82 27 7a 3f 05 ac 7e 3f 59 51 7f 3f 0f bd 8c 3f
       0.97716534 0.9948123 0.997335 1.0995196
000090 ca 0d 7a 3f 89 71 7a 3f 75 26 76 3f 20 06 89 3f
       0.9767729 0.9782949 0.9615243 1.0704994
0000a0 a0 c7 71 3f 92 e5 93 3f 71 95 81 3f a3 68 84 3f
       0.9444523 1.1554434 1.0123731 1.0344433
0000b0 c3 f1 80 3f 6e 4f 70 3f b1 11 71 3f 0b 69 79 3f
       1.007378 0.938712 0.9416762 0.9742591
0000c0 65 00 86 3f fe e7 64 3f a9 f3 86 3f 48 61 6e 3f
       1.046887 0.8941649 1.0543109 0.9311719
0000d0 91 86 6c 3f 18 99 70 3f 59 58 71 3f 56 98 8e 3f
       0.9239283 0.939836 0.9427543 1.1140239
0000e0 42 2b 75 3f 1a e9 76 3f ed 26 80 3f 52 ab 80 3f
       0.9576913 0.96449435 1.0011879 1.0052283
0000f0 46 eb 65 3f f3 53 84 3f 92 76 7c 3f db ec 6f 3f
       0.89812124 1.0338119 0.98618424 0.9372079

sigma_net.net.3.norm.bias f4 [64]
000000 0d 9c 45 bd 0a 61 fb 3a 9d 9d cd bb 55 2f 08 bc
       -0.048244525 0.00191787 -0.0062748925 -0.008312066
000010 94 d3 3e bb 3d b3 5a 3c 17 d6 9e bd d8 9f 9c bd
       -0.002911781 0.013348398 -0.07755678 -0.07647675
000020 08 46 7c 3c 13 92 97 bd e1 3c b8 bd 6f 30 02 3d
       0.015397556 -0.07400908 -0.08995987 0.03178447
000030 0b 79 2d bd 3c 44 b9 bc e6 6e 21 bd 60 2b 1b 3d
       -0.042351764 -0.022615544 -0.0394124 0.037883162
000040 08 7a d3 bb 61 5f 43 3c 18 21 70 bc b7 d0 73 bd
       -0.0064537562 0.011924596 -0.014656328 -0.059525218
000050 66 6b b6 3b 0d 97 b6 bd c5 e4 fb 3b 2e 70 7b bc
       0.005567002 -0.089155294 0.0076871836 -0.01534657
000060 14 ae b4 3b fd 24 2e 3d 0e 5f bf bd 18 fe 53 3c
       0.005513916 0.042515744 -0.09344302 0.012938999
000070 a4 33 60 bd 51 5f d2 bd 58 89 b4 3c 10 e6 8d bd
       -0.05473675 -0.102720864 0.022038147 -0.069286466
000080 9a 57 09 bd b9 4c d2 bc 9b 21 60 3c 3d 4c f0 3c
       -0.03353081 -0.02567135 0.013679887 0.029333228
000090 43 76 f9 3a b6 02 46 3b 43 22 cb bc e2 30 23 3c
       0.0019032437 0.0030214018 -0.02479661 0.009960385
0000a0 65 05 9d bc 29 96 14 bc 33 d7 6e bc 68 d7 13 3b
       -0.019167611 -0.009069004 -0.014577675 0.0022558812
0000b0 e4 ac d8 bc b8 bd 8c bd e6 55 f1 bc a0 cf 6e 3c
       -0.026449628 -0.068721235 -0.029459905 0.014575869
0000c0 06 8d dd 3c df 05 cc bc 95 e6 e5 3b eb ef fa 3c
       0.027044784 -0.024905143 0.007016013 0.03063198
0000d0 53 35 0a bd c1 06 43 bc c7 87 03 bd 30 57 cc bc
       -0.03374226 -0.011903466 -0.03211191 -0.024943918
0000e0 61 ea 9e bc de e5 6c 3b 42 9e 53 3c 3d ae 51 bd
       -0.01939887 0.0036147754 0.01291615 -0.051191557
0000f0 ef fc 28 bd a4 34 05 bd 4e 65 90 3b de 63 3f bd
       -0.04125684 -0.032520905 0.0044066077 -0.0467261
