trial2/checkpoints/df_ep0002.pth (torch, 574213 bytes, 142 tensors)

exp_avg f4 [64, 75]
1.7727769e-05 -3.281306e-05 -3.2852327e-05 1.0694503e-05 -3.35005e-05 -2.8565732e-05 -9.38047e-07 1.527489e-05
2.7478198e-05 -8.812037e-06 -6.913959e-05 -3.5639117e-05 -2.3333643e-05 1.4118913e-05 5.396182e-05 -4.2773812e-05
-0.00011710275 1.1546918e-05 4.9262137e-05 -8.280683e-06 6.1197694e-05 0.0 0.0 0.0
0.0 0.0 0.0 0.0 0.0 0.0 0.0 0.0
0.0 0.0 0.0 0.0 0.0 0.0 0.0 0.0
0.0 0.0 0.0 0.0 0.0 0.0 0.0 0.0
0.0 0.0 0.0 0.0 0.0 0.0 0.0 0.0
0.0 0.0 0.0 0.0 0.0 0.0 0.0 0.0
0.0 0.0 0.0 0.0 0.0 0.0 0.0 0.0
0.0 0.0 0.0 2.098574e-05 -1.2303487e-06 -3.3925502e-05 1.5734908e-05 7.747819e-09
-2.8388547e-05 3.8522772e-05 4.1621963e-05 3.1539035e-05 5.8770133e-06 6.4610003e-06 -2.898377e-05 2.6772756e-05
3.3093325e-05 2.0240552e-06 -7.475727e-05 4.23835e-05 4.801355e-05 4.418573e-05 2.8663348e-05 -5.702874e-06
0.0 0.0 0.0 0.0 0.0 0.0 0.0 0.0
0.0 0.0 0.0 0.0 0.0 0.0 0.0 0.0
0.0 0.0 0.0 0.0 0.0 0.0 0.0 0.0
0.0 0.0 0.0 0.0 0.0 0.0 0.0 0.0
0.0 0.0 0.0 0.0 0.0 0.0 0.0 0.0
0.0 0.0 0.0 0.0 0.0 0.0 0.0 0.0
0.0 0.0 0.0 0.0 0.0 0.0 -0.0022430068 0.004270586
-0.00077832805 -0.002351861 0.004214095 -0.00089550717 -0.012342627 -0.010920513 -0.010572408 -0.0051951306
0.008131786 -0.0022761612 -0.016131075 -0.012093898 -0.009594839 -0.011189387 0.014624906 -0.003641723
-0.015476959 -0.01734404 0.005054 0.0 0.0 0.0 0.0 0.0
0.0 0.0 0.0 0.0 0.0 0.0 0.0 0.0
0.0 0.0 0.0 0.0 0.0 0.0 0.0 0.0
0.0 0.0 0.0 0.0 0.0 0.0 0.0 0.0
0.0 0.0 0.0 0.0 0.0 0.0 0.0 0.0
0.0 0.0 0.0 0.0 0.0 0.0 0.0 0.0
0.0 0.0 0.0 0.0 0.0 0.0 0.0 0.0
0.0 0.00018900196 -0.00027915245 0.009627888 0.00011748115 -0.00025967663 0.009356674 0.008191464
0.008130195 0.007492386 -0.00011738802 -0.0004081553 0.01717763 0.0076778326 0.0071455077 0.004861445
-0.0014276665 -2.0796542e-05 0.024315642 0.008347818 0.003498284 -0.0020313675 0.0 0.0
0.0 0.0 0.0 0.0 0.0 0.0 0.0 0.0
00000000: 18b6 9437 c1a0 09b8 ebca 09b8 8a6c 3337
00000010: e382 0cb8 71a0 efb7 19ce 7bb5 9422 8037
00000020: fb80 e637 69d7 13b7 09ff 90b8 367b 15b8
00000030: 9ebc c3b7 45e0 6c37 1055 6238 0868 33b8
00000040: 0f95 f5b8 a3b9 4137 d19e 4e38 43ed 0ab7
00000050: 4357 8038 0000 0000 0000 0000 0000 0000
00000060: 0000 0000 0000 0000 0000 0000 0000 0000
00000070: 0000 0000 0000 0000 0000 0000 0000 0000
00000080: 0000 0000 0000 0000 0000 0000 0000 0000
00000090: 0000 0000 0000 0000 0000 0000 0000 0000
000000a0: 0000 0000 0000 0000 0000 0000 0000 0000
000000b0: 0000 0000 0000 0000 0000 0000 0000 0000
000000c0: 0000 0000 0000 0000 0000 0000 0000 0000
000000d0: 0000 0000 0000 0000 0000 0000 0000 0000
000000e0: 0000 0000 0000 0000 0000 0000 0000 0000
000000f0: 0000 0000 0000 0000 0000 0000 0000 0000
00000100: 0000 0000 0000 0000 0000 0000 0000 0000
00000110: 0000 0000 0000 0000 0000 0000 0000 0000
00000120: 0000 0000 0000 0000 0000 0000 890a b037
00000130: 7622 a5b5 3b4b 0eb8 75fe 8337 451b 0532
00000140: f123 eeb7 8393 2138 3e93 2e38 c848 0438
00000150: 2933 c536 92cb d836 2c22 f3b7 0e96 e037
00000160: b0cd 0a38 01d5 0736 01c7 9cb8 f0c4 3138
00000170: 2862 4938 1154 3938 1272 f037 515b bfb6
00000180: 0000 0000 0000 0000 0000 0000 0000 0000
00000190: 0000 0000 0000 0000 0000 0000 0000 0000
000001a0: 0000 0000 0000 0000 0000 0000 0000 0000
000001b0: 0000 0000 0000 0000 0000 0000 0000 0000
000001c0: 0000 0000 0000 0000 0000 0000 0000 0000
000001d0: 0000 0000 0000 0000 0000 0000 0000 0000
000001e0: 0000 0000 0000 0000 0000 0000 0000 0000
000001f0: 0000 0000 0000 0000 0000 0000 0000 0000
00000200: 0000 0000 0000 0000 0000 0000 0000 0000
00000210: 0000 0000 0000 0000 0000 0000 0000 0000
00000220: 0000 0000 0000 0000 0000 0000 0000 0000
00000230: 0000 0000 0000 0000 0000 0000 0000 0000
00000240: 0000 0000 0000 0000 0000 0000 0000 0000
00000250: 0000 0000 0000 0000 69ff 12bb 46f0 8b3b
00000260: b608 4cba ae21 1abb 6416 8a3b 78c0 6aba
00000270: bb38 4abc f4eb 32bc e537 2dbc ea3b aabb
00000280: 2f3b 053c a62b 15bb 5125 84bc 7c25 46bc
00000290: ac33 1dbc b153 37bc 4d9d 6f3c f9a9 6ebb
000002a0: 1293 7dbc 1715 8ebc 069c a53b 0000 0000
000002b0: 0000 0000 0000 0000 0000 0000 0000 0000
000002c0: 0000 0000 0000 0000 0000 0000 0000 0000
000002d0: 0000 0000 0000 0000 0000 0000 0000 0000
000002e0: 0000 0000 0000 0000 0000 0000 0000 0000
000002f0: 0000 0000 0000 0000 0000 0000 0000 0000
00000300: 0000 0000 0000 0000 0000 0000 0000 0000
00000310: 0000 0000 0000 0000 0000 0000 0000 0000
00000320: 0000 0000 0000 0000 0000 0000 0000 0000
00000330: 0000 0000 0000 0000 0000 0000 0000 0000
00000340: 0000 0000 0000 0000 0000 0000 0000 0000
00000350: 0000 0000 0000 0000 0000 0000 0000 0000
00000360: 0000 0000 0000 0000 0000 0000 0000 0000
00000370: 0000 0000 0000 0000 0000 0000 0000 0000
00000380: 0000 0000 d42e 4639 355b 92b9 4abe 1d3c
00000390: 3660 f638 3525 88b9 bc4c 193c 7d35 063c
000003a0: 8234 053c b082 f53b 372e f6b8 adfd d5b9
000003b0: 1ab8 8c3c 5496 fb3b dd24 ea3b c24c 9f3b
000003c0: 8a20 bbba 3c74 aeb7 9931 c73c 49c5 083c
000003d0: 7743 653b b120 05bb 0000 0000 0000 0000
000003e0: 0000 0000 0000 0000 0000 0000 0000 0000
000003f0: 0000 0000 0000 0000 0000 0000 0000 0000

exp_avg_sq f4 [64, 75]
3.0833442e-05 1.5224196e-05 7.1902596e-06 1.8527027e-05 1.3868119e-05 6.2411195e-06 1.2265652e-05 1.7967956e-05
2.0432972e-05 1.6224147e-05 4.210824e-05 1.6627613e-05 3.8273964e-05 1.4215251e-05 2.1421294e-05 0.00010986496
5.6094286e-05 1.7768976e-05 2.3153802e-05 5.9499274e-05 4.1412888e-05 0.0 0.0 0.0
0.0 0.0 0.0 0.0 0.0 0.0 0.0 0.0
0.0 0.0 0.0 0.0 0.0 0.0 0.0 0.0
0.0 0.0 0.0 0.0 0.0 0.0 0.0 0.0
0.0 0.0 0.0 0.0 0.0 0.0 0.0 0.0
0.0 0.0 0.0 0.0 0.0 0.0 0.0 0.0
0.0 0.0 0.0 0.0 0.0 0.0 0.0 0.0
0.0 0.0 0.0 1.4861142e-05 2.0213804e-06 1.2430125e-05 1.07369815e-05 1.9405647e-06
9.0286585e-06 1.13004135e-05 1.8499233e-05 1.3581472e-05 1.6217517e-05 7.1218806e-06 1.2058048e-05 1.4811592e-05
1.643e-05 1.5788673e-05 5.825951e-05 2.5916519e-05 1.5284162e-05 3.247772e-05 1.5687174e-05 1.6261323e-05
0.0 0.0 0.0 0.0 0.0 0.0 0.0 0.0
0.0 0.0 0.0 0.0 0.0 0.0 0.0 0.0
0.0 0.0 0.0 0.0 0.0 0.0 0.0 0.0
0.0 0.0 0.0 0.0 0.0 0.0 0.0 0.0
0.0 0.0 0.0 0.0 0.0 0.0 0.0 0.0
0.0 0.0 0.0 0.0 0.0 0.0 0.0 0.0
0.0 0.0 0.0 0.0 0.0 0.0 0.013074575 0.0025355294
0.017044554 0.012089184 0.0024824583 0.01536364 0.080399156 0.0882831 0.077784434 0.038961917
0.009397194 0.04570668 0.063605174 0.08529919 0.05717098 0.08068415 0.031928178 0.07648895
0.06297452 0.07862736 0.06249098 0.0 0.0 0.0 0.0 0.0
0.0 0.0 0.0 0.0 0.0 0.0 0.0 0.0
0.0 0.0 0.0 0.0 0.0 0.0 0.0 0.0
0.0 0.0 0.0 0.0 0.0 0.0 0.0 0.0
0.0 0.0 0.0 0.0 0.0 0.0 0.0 0.0
0.0 0.0 0.0 0.0 0.0 0.0 0.0 0.0
0.0 0.0 0.0 0.0 0.0 0.0 0.0 0.0
0.0 0.0015423098 0.0009728234 0.0017678565 0.0014068449 0.000942364 0.0016392415 0.012435209
0.01279777 0.012120465 0.004490932 0.0034579756 0.00531685 0.011486323 0.011944966 0.010178828
0.011122139 0.010599222 0.011062703 0.013494158 0.010435989 0.009540386 0.0 0.0
0.0 0.0 0.0 0.0 0.0 0.0 0.0 0.0
00000000: 2853 0138 6d6b 7f37 dc43 f136 7d6a 9b37
00000010: 1eab 6837 cf6a d136 93c8 4d37 e4b9 9637
00000020: 7967 ab37 1719 8837 619d 3038 877b 8b37
00000030: 5b88 2038 0a7e 6e37 e1b1 b337 4d67 e638
00000040: c846 6b38 960e 9537 693a c237 dc8e 7938
00000050: c0b2 2d38 0000 0000 0000 0000 0000 0000
00000060: 0000 0000 0000 0000 0000 0000 0000 0000
00000070: 0000 0000 0000 0000 0000 0000 0000 0000
00000080: 0000 0000 0000 0000 0000 0000 0000 0000
00000090: 0000 0000 0000 0000 0000 0000 0000 0000
000000a0: 0000 0000 0000 0000 0000 0000 0000 0000
000000b0: 0000 0000 0000 0000 0000 0000 0000 0000
000000c0: 0000 0000 0000 0000 0000 0000 0000 0000
000000d0: 0000 0000 0000 0000 0000 0000 0000 0000
000000e0: 0000 0000 0000 0000 0000 0000 0000 0000
000000f0: 0000 0000 0000 0000 0000 0000 0000 0000
00000100: 0000 0000 0000 0000 0000 0000 0000 0000
00000110: 0000 0000 0000 0000 0000 0000 0000 0000
00000120: 0000 0000 0000 0000 0000 0000 1e54 7937
00000130: 0da7 0736 fb8a 5037 fc22 3437 a63a 0236
00000140: cb79 1737 e896 3d37 cd2e 9b37 fadb 6337
00000150: da0a 8837 7df8 ee36 ec4c 4a37 4e7f 7837
00000160: 28d3 8937 eb71 8437 ac5b 7438 4d67 d937
00000170: 7d36 8037 b038 0838 f397 8337 ed68 8837
00000180: 0000 0000 0000 0000 0000 0000 0000 0000
00000190: 0000 0000 0000 0000 0000 0000 0000 0000
000001a0: 0000 0000 0000 0000 0000 0000 0000 0000
000001b0: 0000 0000 0000 0000 0000 0000 0000 0000
000001c0: 0000 0000 0000 0000 0000 0000 0000 0000
000001d0: 0000 0000 0000 0000 0000 0000 0000 0000
000001e0: 0000 0000 0000 0000 0000 0000 0000 0000
000001f0: 0000 0000 0000 0000 0000 0000 0000 0000
00000200: 0000 0000 0000 0000 0000 0000 0000 0000
00000210: 0000 0000 0000 0000 0000 0000 0000 0000
00000220: 0000 0000 0000 0000 0000 0000 0000 0000
00000230: 0000 0000 0000 0000 0000 0000 0000 0000
00000240: 0000 0000 0000 0000 0000 0000 0000 0000
00000250: 0000 0000 0000 0000 be36 563c 202b 263b
00000260: 05a1 8b3c b611 463c bdb0 223b c7b7 7b3c
00000270: 50a8 a43d c5cd b43d 724d 9f3d 8896 1f3d
00000280: b0f6 193c ed36 3b3d 6e43 823d 57b1 ae3d
00000290: 1e2c 6a3d bb3d a53d 1fc7 023d 3da6 9c3d
000002a0: c9f8 803d 6207 a13d 8bf6 7f3d 0000 0000
000002b0: 0000 0000 0000 0000 0000 0000 0000 0000
000002c0: 0000 0000 0000 0000 0000 0000 0000 0000
000002d0: 0000 0000 0000 0000 0000 0000 0000 0000
000002e0: 0000 0000 0000 0000 0000 0000 0000 0000
000002f0: 0000 0000 0000 0000 0000 0000 0000 0000
00000300: 0000 0000 0000 0000 0000 0000 0000 0000
00000310: 0000 0000 0000 0000 0000 0000 0000 0000
00000320: 0000 0000 0000 0000 0000 0000 0000 0000
00000330: 0000 0000 0000 0000 0000 0000 0000 0000
00000340: 0000 0000 0000 0000 0000 0000 0000 0000
00000350: 0000 0000 0000 0000 0000 0000 0000 0000
00000360: 0000 0000 0000 0000 0000 0000 0000 0000
00000370: 0000 0000 0000 0000 0000 0000 0000 0000
00000380: 0000 0000 5427 ca3a 1305 7f3a 6cb7 e73a
00000390: e265 b83a fa08 773a d1db d63a 0cbd 4b3c
000003a0: bdad 513c ea94 463c ab28 933b 349f 623b
000003b0: f838 ae3b 2131 3c3c d2b4 433c 19c5 263c
000003c0: a239 363c 5ca8 2d3c 5740 353c 9a16 5d3c
000003d0: b6fb 2a3c 474f 1c3c 0000 0000 0000 0000
000003e0: 0000 0000 0000 0000 0000 0000 0000 0000
000003f0: 0000 0000 0000 0000 0000 0000 0000 0000

exp_avg_diff f4 [64, 75]
-8.4477085e-07 1.4297492e-06 2.7956562e-06 -7.314469e-07 1.3238886e-06 2.4469084e-06 2.3531709e-06 3.1329441e-06
1.8741279e-06 -8.545497e-07 2.1168491e-06 3.0883011e-06 6.256594e-07 3.1832358e-06 -8.1127723e-07 1.2621956e-06
2.144822e-06 -1.6192635e-06 -2.1825674e-06 1.6536173e-06 -3.1897985e-06 0.0 0.0 0.0
0.0 0.0 0.0 0.0 0.0 0.0 0.0 0.0
0.0 0.0 0.0 0.0 0.0 0.0 0.0 0.0
0.0 0.0 0.0 0.0 0.0 0.0 0.0 0.0
0.0 0.0 0.0 0.0 0.0 0.0 0.0 0.0
0.0 0.0 0.0 0.0 0.0 0.0 0.0 0.0
0.0 0.0 0.0 0.0 0.0 0.0 0.0 0.0
0.0 0.0 0.0 2.4133303e-07 -3.3070467e-07 -1.2460173e-07 2.305513e-07 -2.9318397e-07
-1.2535078e-07 2.6108606e-07 2.4450605e-07 3.6262958e-07 3.788894e-07 -3.9150757e-07 -2.5369832e-07 -3.2091055e-08
-6.3403874e-08 3.2352986e-07 -8.387786e-09 8.9704386e-08 -4.962568e-07 -4.592641e-07 -4.2181068e-07 1.7767923e-07
0.0 0.0 0.0 0.0 0.0 0.0 0.0 0.0
0.0 0.0 0.0 0.0 0.0 0.0 0.0 0.0
0.0 0.0 0.0 0.0 0.0 0.0 0.0 0.0
0.0 0.0 0.0 0.0 0.0 0.0 0.0 0.0
0.0 0.0 0.0 0.0 0.0 0.0 0.0 0.0
0.0 0.0 0.0 0.0 0.0 0.0 0.0 0.0
0.0 0.0 0.0 0.0 0.0 0.0 -0.0048602843 0.0017929311
-0.01352756 -0.0049064276 0.0017902489 -0.012445379 -0.007376464 -0.00711321 -0.0064230007 -0.01004979
0.0035672837 -0.018958371 -0.007753649 -0.0066303946 -0.0040895767 -0.020983284 0.0071014375 -0.003928281
-0.010241131 -0.0047957823 0.002382524 0.0 0.0 0.0 0.0 0.0
0.0 0.0 0.0 0.0 0.0 0.0 0.0 0.0
0.0 0.0 0.0 0.0 0.0 0.0 0.0 0.0
0.0 0.0 0.0 0.0 0.0 0.0 0.0 0.0
0.0 0.0 0.0 0.0 0.0 0.0 0.0 0.0
0.0 0.0 0.0 0.0 0.0 0.0 0.0 0.0
0.0 0.0 0.0 0.0 0.0 0.0 0.0 0.0
0.0 0.00029854735 0.00010394875 0.0009890486 0.00027744132 0.00010583109 0.0009243303 -0.000928354
-0.00066373457 -0.00026452477 0.00043449784 0.0002224319 0.0014769378 -0.0016226567 -0.00059150567 0.00090796646
6.343815e-05 0.0005023582 0.00049668073 -0.00412108 -0.00034527265 0.00424801 0.0 0.0
0.0 0.0 0.0 0.0 0.0 0.0 0.0 0.0
00000000: 36c4 62b5 cfe5 bf35 029d 3b36 a658 44b5
00000010: 77b0 b135 9135 2436 2beb 1d36 923f 5236
00000020: 8b8a fb35 3564 65b5 310f 0e36 9c40 4f36
00000030: fdf2 2735 939f 5536 8cc6 59b5 b668 a935
00000040: c3ef 0f36 7855 d9b5 3978 12b6 dcf1 dd35
00000050: 5210 56b6 0000 0000 0000 0000 0000 0000
00000060: 0000 0000 0000 0000 0000 0000 0000 0000
00000070: 0000 0000 0000 0000 0000 0000 0000 0000
00000080: 0000 0000 0000 0000 0000 0000 0000 0000
00000090: 0000 0000 0000 0000 0000 0000 0000 0000
000000a0: 0000 0000 0000 0000 0000 0000 0000 0000
000000b0: 0000 0000 0000 0000 0000 0000 0000 0000
000000c0: 0000 0000 0000 0000 0000 0000 0000 0000
000000d0: 0000 0000 0000 0000 0000 0000 0000 0000
000000e0: 0000 0000 0000 0000 0000 0000 0000 0000
000000f0: 0000 0000 0000 0000 0000 0000 0000 0000
00000100: 0000 0000 0000 0000 0000 0000 0000 0000
00000110: 0000 0000 0000 0000 0000 0000 0000 0000
00000120: 0000 0000 0000 0000 0000 0000 8f90 8134
00000130: b48b b1b4 43ca 05b4 758d 7734 e666 9db4
00000140: 2998 06b4 652b 8c34 a844 8334 6eaf c234
00000150: 2a6a cb34 6430 d2b4 0834 88b4 7dd4 09b3
00000160: a628 88b3 9bb1 ad34 df19 10b2 82a3 c033
00000170: 8236 05b5 c790 f6b4 3875 e2b4 18c8 3e34
00000180: 0000 0000 0000 0000 0000 0000 0000 0000
00000190: 0000 0000 0000 0000 0000 0000 0000 0000
000001a0: 0000 0000 0000 0000 0000 0000 0000 0000
000001b0: 0000 0000 0000 0000 0000 0000 0000 0000
000001c0: 0000 0000 0000 0000 0000 0000 0000 0000
000001d0: 0000 0000 0000 0000 0000 0000 0000 0000
000001e0: 0000 0000 0000 0000 0000 0000 0000 0000
000001f0: 0000 0000 0000 0000 0000 0000 0000 0000
00000200: 0000 0000 0000 0000 0000 0000 0000 0000
00000210: 0000 0000 0000 0000 0000 0000 0000 0000
00000220: 0000 0000 0000 0000 0000 0000 0000 0000
00000230: 0000 0000 0000 0000 0000 0000 0000 0000
00000240: 0000 0000 0000 0000 0000 0000 0000 0000
00000250: 0000 0000 0000 0000 0543 9fbb c900 eb3a
00000260: b3a2 5dbc 19c6 a0bb c9a6 ea3a b4e7 4bbc
00000270: 44b6 f1bb ee15 e9bb 0978 d2bb e0a7 24bc
00000280: 17c9 693b 964e 9bbc 5212 febb c843 d9bb
00000290: db01 86bb 23e5 abbc 2db3 e83b cfb8 80bb
000002a0: 6bca 27bc f025 9dbb 1f24 1c3b 0000 0000
000002b0: 0000 0000 0000 0000 0000 0000 0000 0000
000002c0: 0000 0000 0000 0000 0000 0000 0000 0000
000002d0: 0000 0000 0000 0000 0000 0000 0000 0000
000002e0: 0000 0000 0000 0000 0000 0000 0000 0000
000002f0: 0000 0000 0000 0000 0000 0000 0000 0000
00000300: 0000 0000 0000 0000 0000 0000 0000 0000
00000310: 0000 0000 0000 0000 0000 0000 0000 0000
00000320: 0000 0000 0000 0000 0000 0000 0000 0000
00000330: 0000 0000 0000 0000 0000 0000 0000 0000
00000340: 0000 0000 0000 0000 0000 0000 0000 0000
00000350: 0000 0000 0000 0000 0000 0000 0000 0000
00000360: 0000 0000 0000 0000 0000 0000 0000 0000
00000370: 0000 0000 0000 0000 0000 0000 0000 0000
00000380: 0000 0000 5986 9c39 0fff d938 f7a2 813a
00000390: 8b75 9139 a2f1 dd38 c24e 723a c85c 73ba
000003a0: 79fe 2dba eaaf 8ab9 50cd e339 9c3c 6939
000003b0: cf95 c13a 53af d4ba 460f 1bba 9904 6e3a
000003c0: 190a 8538 b0b0 033a ae33 023a 200a 87bb
000003d0: b605 b5b9 e432 8b3b 0000 0000 0000 0000
000003e0: 0000 0000 0000 0000 0000 0000 0000 0000
000003f0: 0000 0000 0000 0000 0000 0000 0000 0000

neg_pre_grad f4 [64, 75]
2.2363203e-05 -1.1718944e-05 -1.8890587e-05 2.026041e-05 -1.0672979e-05 -1.6503287e-05 -1.4423635e-05 -2.12055e-05
-1.1783748e-05 2.901795e-05 -1.6175974e-05 -2.0504554e-05 -1.1796473e-06 -2.2880882e-05 6.763839e-06 -3.514417e-06
-1.3733565e-05 1.41187775e-05 1.5522672e-05 -9.802042e-06 2.2200567e-05 0.0 0.0 0.0
0.0 0.0 0.0 0.0 0.0 0.0 0.0 0.0
0.0 0.0 0.0 0.0 0.0 0.0 0.0 0.0
0.0 0.0 0.0 0.0 0.0 0.0 0.0 0.0
0.0 0.0 0.0 0.0 0.0 0.0 0.0 0.0
0.0 0.0 0.0 0.0 0.0 0.0 0.0 0.0
0.0 0.0 0.0 0.0 0.0 0.0 0.0 0.0
0.0 0.0 0.0 -4.9228293e-09 5.3258333e-07 -8.05108e-08 2.7579336e-08 4.4317915e-07
-6.783757e-08 1.481719e-07 4.0378097e-07 1.5515029e-07 1.805649e-07 4.099454e-07 -6.492853e-08 1.584197e-07
1.1036292e-06 2.833993e-07 2.2564703e-07 -1.5151167e-06 2.9866456e-07 -3.8172874e-07 1.7095974e-06 5.0991446e-07
0.0 0.0 0.0 0.0 0.0 0.0 0.0 0.0
0.0 0.0 0.0 0.0 0.0 0.0 0.0 0.0
0.0 0.0 0.0 0.0 0.0 0.0 0.0 0.0
0.0 0.0 0.0 0.0 0.0 0.0 0.0 0.0
0.0 0.0 0.0 0.0 0.0 0.0 0.0 0.0
0.0 0.0 0.0 0.0 0.0 0.0 0.0 0.0
0.0 0.0 0.0 0.0 0.0 0.0 0.061615985 -0.023512179
0.16032892 0.06213665 -0.02347272 0.14767313 0.13012177 0.12802377 0.11703589 0.12696399
-0.04674756 0.22577187 0.13105494 0.12210475 0.08014129 0.264408 -0.092789695 0.04975501
0.14392449 0.09961314 -0.03786057 0.0 0.0 0.0 0.0 0.0
0.0 0.0 0.0 0.0 0.0 0.0 0.0 0.0
0.0 0.0 0.0 0.0 0.0 0.0 0.0 0.0
0.0 0.0 0.0 0.0 0.0 0.0 0.0 0.0
0.0 0.0 0.0 0.0 0.0 0.0 0.0 0.0
0.0 0.0 0.0 0.0 0.0 0.0 0.0 0.0
0.0 0.0 0.0 0.0 0.0 0.0 0.0 0.0
0.0 -0.005581592 -0.002066229 -0.026383482 -0.0053156908 -0.0020970576 -0.025185807 0.001073149
-0.0021140713 -0.005718712 -0.0091190515 -0.0043645864 -0.0434903 0.009415865 -0.002981909 -0.016492087
-0.0082769785 -0.00961039 -0.04078924 0.039418902 -0.0058603366 -0.04670545 0.0 0.0
0.0 0.0 0.0 0.0 0.0 0.0 0.0 0.0
00000000: 9d98 bb37 7b9c 44b7 3a77 9eb7 e6f4 a937
00000010: 1910 33b7 8a70 8ab7 0afd 71b7 77e2 b1b7
00000020: d0b2 45b7 936b f337 a4b1 87b7 3201 acb7
00000030: 5f54 9eb5 52f0 bfb7 eff4 e236 39d9 6bb6
00000040: 3669 66b7 b0df 6c37 af36 8237 7373 24b7
00000050: 5b3b ba37 0000 0000 0000 0000 0000 0000
00000060: 0000 0000 0000 0000 0000 0000 0000 0000
00000070: 0000 0000 0000 0000 0000 0000 0000 0000
00000080: 0000 0000 0000 0000 0000 0000 0000 0000
00000090: 0000 0000 0000 0000 0000 0000 0000 0000
000000a0: 0000 0000 0000 0000 0000 0000 0000 0000
000000b0: 0000 0000 0000 0000 0000 0000 0000 0000
000000c0: 0000 0000 0000 0000 0000 0000 0000 0000
000000d0: 0000 0000 0000 0000 0000 0000 0000 0000
000000e0: 0000 0000 0000 0000 0000 0000 0000 0000
000000f0: 0000 0000 0000 0000 0000 0000 0000 0000
00000100: 0000 0000 0000 0000 0000 0000 0000 0000
00000110: 0000 0000 0000 0000 0000 0000 0000 0000
00000120: 0000 0000 0000 0000 0000 0000 aa25 a9b1
00000130: d9f6 0e35 48e5 acb3 9ae7 ec32 14ee ed34
00000140: 19ae 91b3 2f19 1f34 3cc7 d834 6397 2634
00000150: 4de1 4134 7716 dc34 d66e 8bb3 131a 2a34
00000160: 6920 9435 1a26 9834 6249 7234 035b cbb5
00000170: 2558 a034 66f0 ccb4 5275 e535 0ee1 0835
00000180: 0000 0000 0000 0000 0000 0000 0000 0000
00000190: 0000 0000 0000 0000 0000 0000 0000 0000
000001a0: 0000 0000 0000 0000 0000 0000 0000 0000
000001b0: 0000 0000 0000 0000 0000 0000 0000 0000
000001c0: 0000 0000 0000 0000 0000 0000 0000 0000
000001d0: 0000 0000 0000 0000 0000 0000 0000 0000
000001e0: 0000 0000 0000 0000 0000 0000 0000 0000
000001f0: 0000 0000 0000 0000 0000 0000 0000 0000
00000200: 0000 0000 0000 0000 0000 0000 0000 0000
00000210: 0000 0000 0000 0000 0000 0000 0000 0000
00000220: 0000 0000 0000 0000 0000 0000 0000 0000
00000230: 0000 0000 0000 0000 0000 0000 0000 0000
00000240: 0000 0000 0000 0000 0000 0000 0000 0000
00000250: 0000 0000 0000 0000 0b61 7c3d 9d9c c0bc
00000260: 442d 243e 0083 7e3d dd49 c0bc a037 173e
00000270: a43e 053e aa18 033e 83b0 ef3d d902 023e
00000280: 5f7a 3fbd be30 673e 4433 063e 0e12 fa3d
00000290: 1e21 a43d 7c60 873e 8608 bebd e9cb 4b3d
000002a0: f160 133e f901 cc3d af13 1bbd 0000 0000
000002b0: 0000 0000 0000 0000 0000 0000 0000 0000
000002c0: 0000 0000 0000 0000 0000 0000 0000 0000
000002d0: 0000 0000 0000 0000 0000 0000 0000 0000
000002e0: 0000 0000 0000 0000 0000 0000 0000 0000
000002f0: 0000 0000 0000 0000 0000 0000 0000 0000
00000300: 0000 0000 0000 0000 0000 0000 0000 0000
00000310: 0000 0000 0000 0000 0000 0000 0000 0000
00000320: 0000 0000 0000 0000 0000 0000 0000 0000
00000330: 0000 0000 0000 0000 0000 0000 0000 0000
00000340: 0000 0000 0000 0000 0000 0000 0000 0000
00000350: 0000 0000 0000 0000 0000 0000 0000 0000
00000360: 0000 0000 0000 0000 0000 0000 0000 0000
00000370: 0000 0000 0000 0000 0000 0000 0000 0000
00000380: 0000 0000 cae5 b6bb 9269 07bb 2c22 d8bc
00000390: 3f2f aebb ca6e 09bb 7752 cebc e8a8 8c3a
000003a0: 3b8c 0abb 0964 bbbb 1368 15bc ce04 8fbb
000003b0: e322 32bd 0045 1a3c 226c 43bb 6a1a 87bc
000003c0: 2a9c 07bc e674 1dbc 9e12 27bd b775 213d
000003d0: 1108 c0bb 374e 3fbd 0000 0000 0000 0000
000003e0: 0000 0000 0000 0000 0000 0000 0000 0000
000003f0: 0000 0000 0000 0000 0000 0000 0000 0000

exp_avg f4 [64]
1.4919487e-05 4.5445675e-05 -0.010558091 0.008465509 -0.0005179785 0.027112463 0.0040519317 0.020338325
0.04690675 0.00056196714 -0.0035492973 -0.028913898 -0.0007691549 -0.0023039717 -0.016747026 0.009609964
2.1666467e-05 -0.0030054217 0.00014205939 -0.00037015422 0.0029663353 6.5160435e-05 0.0149591295 3.8425696e-05
0.004755304 0.0031295465 2.2963302e-06 0.0066168774 0.0012030851 0.021839835 -0.0041338005 0.008333585
0.020658677 -0.034787536 0.00017879425 0.0045447494 0.000106889114 0.010129466 0.0497993 0.017144166
0.008969507 0.030998273 -0.007044791 -0.0017548964 0.05804722 0.01869917 0.000109593544 0.00035017886
-0.0010063492 0.0135556515 -0.057123303 4.4822773e-05 0.0010627876 0.0033320216 0.029113932 4.617663e-05
0.032796495 0.0002530639 0.05487971 2.0459003e-05 0.01930238 0.00011553609 0.0001315424 0.0020735748
00000000: b54e 7a37 ec9c 3e38 d8fb 2cbc ebb2 0a3c
00000010: f3c8 07ba f51a de3c 11c6 843b 8f9c a63c
00000020: 4b21 403d fa50 133a 549b 68bb d7dc ecbc
00000030: 1da1 49ba 3bfe 16bb 0f31 89bc 1c73 1d3c
00000040: 62c0 b537 9cf6 44bb c7f5 1439 4211 c2b9
00000050: d966 423b bea6 8838 2317 753c 472b 2138
00000060: 62d2 9b3b 1419 4d3b a71a 1a36 64d2 d83b
00000070: d6b0 9d3a 74e9 b23c d574 87bb 9789 083c
00000080: 633c a93c 607d 0ebd b77a 3b39 1fec 943b
00000090: a829 e038 0ff6 253c 5afa 4b3d ec71 8c3c
000000a0: d7f4 123c 17f0 fd3c fdd7 e6bb 8d04 e6ba
000000b0: ecc2 6d3d 002f 993c 96d5 e538 3698 b739
000000c0: 7ae7 83ba 8618 5e3c 20fa 69bd 1600 3c38
000000d0: 3c4d 8b3a 0c5e 5a3b 5780 ee3c c7ad 4138
000000e0: 9e55 063d a9ad 8439 8cc9 603d 609f ab37
000000f0: 0620 9e3c f74b f238 a5ee 0939 d0e4 073b

exp_avg_sq f4 [64]
2.2207683e-05 1.9534196e-05 0.08949968 0.013149739 0.0058323746 0.087007314 0.009615082 0.090748645
0.26646346 0.0022660743 0.034755826 0.11298662 0.017510356 0.017388564 0.32111448 0.01075959
7.689668e-05 0.0677304 0.00028987552 0.040361445 0.007505318 8.428996e-06 0.10212783 1.24924645e-05
0.028268646 0.03616265 2.5784201e-08 0.0063912906 0.042913258 0.06174874 0.022241568 0.038119018
0.14074726 0.055100728 0.00038228737 0.012766934 3.7565467e-05 0.07463604 0.32927412 0.31435105
0.024902865 0.11475248 0.026734192 0.017271746 0.5707191 0.052805293 1.1665393e-05 0.0003524117
0.012117285 0.047290996 0.33797613 4.5790657e-06 0.0010371783 0.0037669104 0.08084957 0.000116960786
0.03814161 0.00037356935 0.28109524 7.5036464e-06 0.07124241 3.361348e-05 3.4245575e-05 0.004079755
00000000: a34a ba37 5edd a337 9c4b b73d 0172 573c
00000010: 811d bf3b e430 b23d 9488 1d3c 6dda b93d
00000020: e66d 883e 6b82 143b 205c 0e3d 8765 e73d
00000030: e171 8f3c 7672 8e3c 1e69 a43e fe48 303c
00000040: 9743 a138 3cb6 8a3d 6ffa 9739 0b52 253d
00000050: 2cef f53b 436a 0d37 6528 d13d ba96 5137
00000060: a693 e73c 491f 143d 0f7c dd32 086e d13b
00000070: d0c5 2f3d 3fec 7c3d f333 b63c b022 1c3d
00000080: 0d20 103e 4db1 613d be6d c839 672c 513c
00000090: 9d8f 1d38 c8da 983d 9e96 a83e 9ff2 a03e
000000a0: 1801 cc3c 5903 eb3d aa01 db3c 7a7d 8d3c
000000b0: a61a 123f 5d4a 583d 7bb6 4337 e6c3 b839
000000c0: 9487 463c 34b4 413d 350b ad3e e0a5 9936
000000d0: eef1 873a 45de 763b 7694 a53d d848 f538
000000e0: 603a 1c3d a1db c339 b7eb 8f3e d5c7 fb36
000000f0: 8ae7 913d 33fc 0c38 e8a2 0f38 77af 853b

exp_avg_diff f4 [64]
3.0442882e-06 3.7598653e-07 -0.0072694886 -0.0006902167 -0.0004588698 0.009248517 0.0031518925 0.020027595
0.015338581 5.10549e-05 -0.009944339 0.008179683 -0.011905096 -0.008040839 -0.015122286 0.0015796879
9.94729e-06 0.025714394 -3.815103e-05 0.0110407965 -9.421149e-06 -1.6058071e-06 0.021065814 2.0632947e-06
-0.015588787 -0.012837406 -4.7573575e-08 -4.6101326e-05 -0.021171743 0.003964121 -0.022551175 -0.00880419
0.0023619735 -0.024923366 -6.31446e-05 0.0021009417 4.035076e-09 -0.03233821 0.014327124 0.006184039
-0.0006242336 -0.01043699 -0.0013720094 -0.032881606 0.023152856 0.019263003 -1.1688626e-05 6.7204346e-06
-0.01477267 -0.013488697 0.010571414 -7.198814e-10 -1.13722235e-05 5.9555623e-06 -0.0078113447 1.5094601e-05
-0.003989678 -5.459713e-06 0.007069053 -2.7838963e-08 -0.029056521 -1.32875675e-05 -5.774046e-06 -0.0006631986
00000000: 794c 4c36 32db c934 e434 eebb a9ef 34ba
00000010: 7694 f0b9 1887 173c fb8f 4e3b e910 a43c
00000020: ac4e 7b3c c823 5638 95ed 22bc 1404 063c
00000030: 970d 43bc b9bd 03bc 77c3 77bc 880d cf3a
00000040: 49e3 2637 fea6 d23c 5b04 20b8 75e4 343c
00000050: 870f 1eb7 1d87 d7b5 3792 ac3c 2277 0a36
00000060: 1d68 7fbc fc53 52bc b353 4cb3 ec5c 41b8
00000070: 5d70 adbc 75e5 813b 3ebd b8bc 733f 10bc
00000080: 57cb 1a3b 162c ccbc 806c 84b8 f4af 093b
00000090: e7a4 8a31 1275 04bd 50bc 6a3c 7ba3 ca3b
000000a0: 9ca3 23ba e9ff 2abc ffd4 b3ba ddae 06bd
000000b0: 0fab bd3c 72cd 9d3c 441a 44b7 1880 e136
000000c0: 1209 72bc b2ff 5cbc b933 2d3c 26e1 45b0
000000d0: 54cb 3eb7 e4d5 c736 4ff6 ffbb d13e 7d37
000000e0: d8bb 82bb 9432 b7b6 84a3 e73b 8722 efb2
000000f0: f107 eebc abed 5eb7 adbe c1b6 81da 2dba

neg_pre_grad f4 [64]
-1.9827294e-05 1.04881835e-07 0.1299482 -0.001790002 0.0030664797 -0.1581839 -0.036002737 -0.28947738
-0.33224094 -0.00045150128 0.13098124 0.022955922 0.10982808 0.10901124 0.16448566 -0.02540382
-7.365311e-05 -0.2657685 0.0003803949 -0.14092289 0.00013462354 2.341873e-05 -0.24591084 -1.4345123e-05
0.19178204 0.14986245 0.0 -0.01901499 0.24536642 -0.12609915 0.24596216 0.07207836
-0.14360175 0.3938396 0.00089590665 -0.049661063 0.0 0.32138652 -0.31048352 -0.012207711
0.006930109 0.053136665 0.05246269 0.3847275 -0.4723013 -0.27047387 1.1092742e-05 -8.586985e-05
0.16692144 0.15827155 0.059004918 0.0 0.00011821771 -0.00013501404 0.0333111 -0.00017505615
0.013542808 4.234191e-05 -0.23698005 0.0 0.26142746 6.642829e-05 3.3020395e-05 0.0064422544
00000000: ca52 a6b7 663b e133 2411 053e 809e eaba
00000010: fef6 483b f6fa 21be 9b77 13bd 6136 94be
00000020: 7c1b aabe 7ab7 ecb9 f21f 063e 0f0e bc3c
00000030: 8bed e03d 4941 df3d ee6e 283e ac1b d0bc
00000040: 3676 9ab8 cf12 88be bd6f c739 174e 10be
00000050: bb29 0d39 5773 c437 0dd0 7bbe d6ab 70b7
00000060: 8362 443e 8b75 193e 0000 0000 53c5 9bbc
00000070: 5641 7b3e 2320 01be 81dd 7b3e d29d 933d
00000080: 560c 13be 58a5 c93e 47db 6a3a 6669 4bbd
00000090: 0000 0000 c68c a43e b2f7 9ebe da02 48bc
000000a0: f815 e33b d5a5 593d 1ee3 563d 01fb c43e
000000b0: 7ad1 f1be 8d7b 8abe f71a 3a37 0615 b4b8
000000c0: 74ed 2a3e f011 223e 24af 713d 0000 0000
000000d0: a6eb f738 8e92 0db9 3871 083d 478f 37b9
000000e0: a7e2 5d3c 4898 3138 e6aa 72be 0000 0000
000000f0: d2d9 853e 6b4f 8b38 617f 0a38 8c19 d33b

exp_avg f4 [64, 64]
2.1697126e-06 2.92206e-06 0.0028716114 -0.00037618494 7.1406794e-05 -4.861335e-06 -9.317015e-05 0.0039615533
-0.00025742955 -1.2816699e-05 0.0036387045 0.0024873132 0.00026355262 0.0028217493 0.00171668 0.00012490473
2.8718416e-06 -0.00088161096 2.8999984e-06 0.00015424554 -9.5251366e-05 3.2253931e-06 0.00035819624 5.885325e-07
7.9496196e-05 0.0025204318 1.3566908e-07 7.171601e-05 0.0013377534 -0.00097537006 0.0010011268 -0.00073219166
0.00035666488 -0.0011894174 5.4728735e-06 -9.791838e-05 8.519422e-06 0.0006952388 -0.0005208941 0.00095914595
-4.8636968e-05 6.69729e-05 0.002148528 0.0001048026 0.0012060791 -0.002187803 4.9488267e-06 8.493918e-06
-3.0849336e-05 -0.000115820825 0.0034172805 3.600452e-07 -2.6202597e-05 -1.5952026e-05 0.00046391902 2.8585653e-06
-3.6587015e-05 1.8084247e-06 -0.00079782156 -9.3141955e-07 -0.0010653711 1.839948e-05 1.7144203e-05 -4.2620788e-05
1.5353105e-06 -1.43914085e-05 -0.0013649941 -0.0002734648 0.00021576566 -2.862608e-05 -0.00021259888 -0.00042379522
-0.00067429297 -8.9173984e-05 -0.0009269249 -0.0010837488 -3.564852e-05 -0.0007186378 0.00020614117 0.00056486315
-1.3655284e-05 -0.001173366 -1.167761e-05 -3.782929e-06 0.00027626377 -1.5535958e-05 6.136476e-05 -6.8961267e-06
-0.0009966658 -0.0005759092 2.0862372e-07 0.00012303333 -0.0006982245 -0.0011620085 -0.00018809359 -0.00044770367
-0.00027052977 -0.0011793756 -2.5835383e-05 -4.334451e-05 -2.4303845e-05 -0.00020109097 -0.0013182629 -0.00082326774
0.00027939526 -0.00013515321 -0.0009047074 -1.4632221e-06 -0.00031607653 -0.001496012 6.9685825e-07 -9.012932e-05
-9.974031e-05 -1.3551178e-05 -0.0013890914 -2.588203e-06 -2.114194e-05 -0.00028911442 0.00038909927 -5.7884486e-06
-1.2570399e-05 6.4042455e-05 -0.00083562214 -2.345323e-06 -0.00035980888 3.232836e-05 -1.3200445e-05 7.7107354e-05
-4.9510168e-06 -1.6554628e-06 0.0054301284 0.0025650146 -0.00015476366 -0.00071018416 0.0008039051 0.004757795
0.0021258665 0.00013933853 0.00556101 0.0042351047 5.339721e-05 0.0043904046 -0.00020572048 -0.0026747764
8.403707e-06 0.004046447 -7.491776e-05 -1.8899065e-05 -0.000777845 -6.497424e-06 -0.00012024051 7.844491e-06
0.003204903 0.0012530938 -3.2755956e-08 -0.000746255 0.003342201 0.0018046203 0.0013039721 0.00027484816
0.00045031263 0.006877881 1.05785375e-05 0.000111897934 3.5405462e-06 0.0009415283 0.0037896053 0.0009396687
-4.3697626e-05 -0.00015610657 0.0052132257 7.1573995e-05 0.0011796695 0.001970492 -2.4165756e-05 5.153303e-05
0.00016773854 0.00080643315 0.006600831 1.2464782e-06 3.5756686e-05 0.00055722333 -0.0030760025 5.972084e-07
0.0014967603 -1.5832702e-05 0.0007487874 2.268394e-06 -0.00018839243 -3.501e-05 1.5758209e-05 0.00012033283
-1.5909945e-05 -2.219611e-07 -0.0021910707 -0.0006893477 0.0008994074 0.00027939797 -0.0006636661 -0.005716695
0.0025422086 0.00034355157 -0.0046412717 -0.0011361012 -0.0016140605 -0.0027376635 0.003053065 0.00261076
2.8614666e-05 -0.0029754566 -0.00013562076 0.00044217313 -0.00028158684 -1.7759983e-05 0.0008127788 2.3596798e-05
-0.0002591177 0.0022423686 -8.43911e-08 0.0013353801 0.00090875314 -9.006552e-05 -0.0007344256 0.0018498622
0.0019676972 -0.0054286453 -8.1574464e-05 0.00019014973 1.944178e-05 0.001855001 -0.0016884438 0.0013016582
-0.00043913157 0.00012647473 -0.0018357334 -2.4879117e-05 0.001036876 0.0020484973 -5.3012576e-05 0.00019635832
0.00026135505 -5.9856695e-05 -0.0029896912 9.173084e-06 7.500357e-05 0.00094118994 0.0038475655 -7.649977e-06
-0.00089744385 -3.1914016e-05 0.0020959147 1.41039345e-05 0.0043595214 -0.00013095743 3.9852424e-05 0.0007713142
00000000: 619b 1136 9c18 4436 a531 3c3b b03a c5b9
00000010: 3bc0 9538 8d1e a3b6 5864 c3b8 ebcf 813b
00000020: 9cf7 86b9 4e07 57b7 5577 6e3b 3102 233b
00000030: 6f2d 8a39 19ed 383b 3902 e13a dcf8 0239
00000040: ddb9 4036 e91b 67ba 989d 4236 f9bc 2139
00000050: b0c1 c7b8 d573 5836 49cc bb39 a5fb 1d35
00000060: 32b7 a638 d42d 253b 6fac 1134 3d66 9638
00000070: 8e57 af3a faaf 7fba 3e38 833a 8df0 3fba
00000080: c0fe ba39 3ae6 9bba a0a3 b736 8859 cdb8
00000090: a4ee 0e37 b040 363a 9c8c 08ba 326f 7b3a
000000a0: 8cff 4bb8 cd73 8c38 51ce 0c3b 78c9 db38
000000b0: 4d15 9e3a 3e61 0fbb 190e a636 1a81 0e37
000000c0: 3964 01b8 d5e4 f2b8 74f4 5f3b 3c4c c134
000000d0: a6cd dbb7 b7d0 85b7 283a f339 c7d5 3f36
000000e0: 0275 19b8 00b9 f235 e624 51ba aa06 7ab5
000000f0: eca3 8bba 9558 9a37 e5d0 8f37 b9c3 32b8
00000100: de10 ce35 a172 71b7 9ae9 b2ba d35f 8fb9
00000110: 273f 6239 0a22 f0b7 14ed 5eb9 d530 deb9
00000120: 09c3 30ba eb02 bbb8 e1fc 72ba 930c 8eba
00000130: 4f85 15b8 f762 3cba 9927 5839 5313 143a
00000140: 0019 65b7 a1cb 99ba f4ea 43b7 3ade 7db6
00000150: 7fd7 9039 3753 82b7 f4b0 8038 4765 e7b6
00000160: 8ea2 82ba 9df8 16ba 0d02 6034 8202 0139
00000170: 0e09 37ba 894e 98ba fd3a 45b9 c5b9 eab9
00000180: e4d5 8db9 4795 9aba 10b9 d8b7 d0cc 35b8
00000190: 1ce0 cbb7 f2db 52b9 90c9 acba 90d0 57ba
000001a0: cc7b 9239 eab7 0db9 e329 6dba ee63 c4b5
000001b0: 13b7 a5b9 d515 c4ba bc0f 3b35 cf03 bdb8
000001c0: ac2b d1b8 de59 63b7 2c12 b6ba fdb0 2db6
000001d0: f859 b1b7 4894 97b9 0500 cc39 653a c2b6
000001e0: 74e5 52b7 884e 8638 a70d 5bba 5864 1db6
000001f0: bba4 bcb9 5098 0738 7b77 5db7 b2b4 a138
00000200: e920 a6b6 4531 deb5 38ef b13b ce19 283b
00000210: 0e48 22b9 a72b 3aba 28bd 523a 47e7 9b3b
00000220: 1f52 0b3b 671b 1239 2239 b63b a2c6 8a3b
00000230: d1f6 5f38 62dd 8f3b acb6 57b9 4d4b 2fbb
00000240: a6fd 0c37 0f98 843b 2b1d 9db8 6f89 9eb7
00000250: 4be8 4bba 7204 dab6 a229 fcb8 d59b 0337
00000260: 5a09 523b da3e a43a 8eaf 0cb3 53a0 43ba
00000270: d408 5b3b 0289 ec3a 0bea aa3a 7f19 9039
00000280: f017 ec39 d95f e13b 797a 3137 bfaa ea38
00000290: 1f9a 6d36 e5d0 763a 075b 783b 1954 763a
000002a0: f847 37b8 8ab0 23b9 b5d3 aa3b ff19 9638
000002b0: 249f 9a3a 5f23 013b 91b7 cab7 2b25 5838
000002c0: f9e2 2f39 d066 533a c94b d83b aa4c a735
000002d0: 73f9 1538 a012 123a c296 49bb d94f 2035
000002e0: f12e c43a 78d0 84b7 464a 443a b63a 1836
000002f0: 358b 45b9 b4d7 12b8 7f30 8437 325b fc38
00000300: 5976 85b7 3454 6eb4 1198 0fbb 57b5 34ba
00000310: 35c6 6b3a 297c 9239 e1f9 2dba 1d53 bbbb
00000320: 2f9b 263b b61e b439 cf15 98bb 3be9 94ba
00000330: e28e d3ba 5f6a 33bb ee15 483b 4919 2b3b
00000340: 8709 f037 e1ff 42bb 6c35 0eb9 79d3 e739
00000350: f2a1 93b9 46fb 94b7 a910 553a bdf1 c537
00000360: 30da 87b9 b4f4 123b 7f3a b5b3 ec07 af3a
00000370: 6439 6e3a 8fe1 bcb8 7886 40ba 1377 f23a
00000380: 7bf4 003b c7e2 b1bb f512 abb8 ee62 4739
00000390: e816 a337 8123 f33a c64e ddba 679c aa3a
000003a0: 3e3b e6b9 4d9e 0439 fe9c f0ba 7fb3 d0b7
000003b0: c9e7 873a 1540 063b d259 5eb8 89e5 4d39
000003c0: 7b06 8939 a30e 7bb8 b2ee 43bb 19e6 1937
000003d0: 3c4b 9d38 30ba 763a 7027 7c3b 6758 00b7
000003e0: 7042 6bba 6adb 05b8 9d5b 093b f09f 6c37
000003f0: 51da 8e3b 9e51 09b9 3727 2738 0532 4a3a

exp_avg_sq f4 [64, 64]
1.6763725e-08 1.656571e-07 0.0043573948 0.0002195772 7.813613e-06 1.5379488e-05 9.5678486e-05 0.0032303275
0.006438131 8.3706493e-07 0.0019523827 0.009332494 7.705175e-05 0.0019369278 0.0005449235 3.1627646e-05
9.956424e-08 0.002707199 2.3535019e-07 8.0233895e-06 1.0261419e-05 1.4736685e-07 4.3063832e-05 1.3752584e-08
0.0014928145 0.0037267595 5.0683763e-12 8.048219e-06 0.0014980467 0.0017652696 0.0003719391 2.712951e-05
2.652505e-05 0.00087182736 1.8689034e-06 8.26434e-07 1.3242812e-06 0.0002627691 0.002525258 0.007978201
5.3276203e-06 2.1590171e-05 0.005421116 2.5579507e-06 0.00084002526 0.0008574419 1.0120289e-08 1.7079785e-07
2.4233027e-06 1.77294e-05 0.010601985 1.4005868e-09 3.2045166e-06 1.4329663e-05 6.634256e-05 2.8928852e-08
4.4403827e-05 8.195674e-07 0.00036833994 1.17791785e-08 0.0007623739 2.7620658e-07 6.7849776e-08 5.509236e-06
8.005317e-06 1.963094e-06 0.0004953924 0.00045467468 0.00015556125 2.309286e-05 0.000115657946 0.00035290228
0.00038073183 5.0204028e-05 0.0005088525 0.0011682865 4.629713e-06 0.0004094156 0.00018464799 0.0002927256
4.9594223e-06 0.00035450418 3.7582975e-06 5.0712156e-06 0.00015188179 5.226617e-06 4.3969503e-05 2.0795595e-07
0.00071521656 0.0006564858 1.7310464e-09 7.0943475e-05 0.0005572084 0.0001447132 1.5737547e-05 5.4473654e-05
6.894336e-05 0.00041462018 8.38577e-05 1.7210064e-05 3.925885e-05 0.00020384009 0.00026542743 0.0009940321
0.00023669047 3.7497735e-05 0.0013541344 4.8364404e-06 0.00018360613 0.00022531944 2.7400722e-07 3.843539e-06
0.00023669418 0.00022334533 0.0014779262 2.4633891e-06 8.049004e-05 0.00019254493 3.191185e-05 1.6380606e-06
0.00048930827 1.5960994e-05 0.00021533758 9.831592e-08 0.000119190554 6.8719373e-06 7.238783e-07 7.641306e-05
4.0793222e-07 4.973954e-07 0.0043087206 0.0018731141 0.00033953707 6.884324e-05 0.0005949467 0.001865118
0.0022164658 1.8971248e-05 0.0030814914 0.0070884586 7.506971e-06 0.0028068204 0.00087905297 0.001325621
4.472665e-07 0.0014721911 4.8325287e-06 3.6914873e-05 0.00033958946 4.6126917e-07 0.0003971585 5.5556745e-07
0.003965028 0.0038466319 2.3321572e-11 0.000348503 0.002197428 0.0007751413 0.00018428525 3.5492143e-05
0.00016197671 0.00199921 7.9162755e-06 5.203508e-06 6.7700233e-07 0.0010282022 0.0014660964 0.005526178
0.00025232113 9.7333264e-05 0.006416457 4.9147475e-06 0.0005960218 0.0005153684 6.981444e-07 4.0629466e-06
3.783432e-05 0.0004667902 0.009082186 1.0671536e-07 7.178527e-05 0.0003052523 0.0004122789 3.636181e-07
0.0012677939 1.4279099e-06 0.0010541307 1.0229807e-07 0.00048118958 1.9683464e-06 2.0483321e-07 9.537635e-05
1.3067992e-05 1.6922628e-05 0.010949684 0.0058216336 0.0011256685 0.0005228652 0.0013188752 0.0110393865
0.012585524 0.0001865506 0.008988573 0.024202647 0.00010131469 0.00937795 0.00714355 0.00298111
1.8787106e-05 0.0073594553 0.00010840289 0.00048432386 0.001730868 3.7603218e-06 0.0017165268 2.4409567e-06
0.008935486 0.0099394135 3.929964e-10 0.0013193273 0.0069552665 0.003220167 0.0009990478 0.0005384446
0.002021584 0.0070840833 3.310972e-05 0.00010152105 7.20876e-06 0.002538118 0.008016293 0.019802513
0.0021823645 0.000713355 0.018618397 6.851519e-05 0.0055636675 0.0044764234 7.699071e-06 4.2508123e-05
0.00055583817 0.0034144595 0.027196161 2.3626437e-06 0.00021452182 0.0012691853 0.0026283602 4.7066505e-06
0.00825257 1.3938617e-05 0.004876763 2.0151567e-06 0.0017338276 1.8829302e-05 2.866103e-06 0.0008708984
00000000: d2ff 8f32 7adf 3134 7ac8 8e3b 4e3e 6639
00000010: 3617 0337 3303 8137 ffa6 c838 e7b3 533b
00000020: f5f6 d23b aab2 6035 18e7 ff3a 51e7 183c
00000030: d896 a138 83e0 fd3a 32d9 0e3a eda7 0438
00000040: 05d0 d533 436b 313b 91b4 7c34 329c 0637
00000050: 7628 2c37 e43b 1e34 709f 3438 8144 6c32
00000060: 8baa c33a a63c 743b e053 b22c d606 0737
00000070: 1b5a c43a 9e60 e73a d200 c339 2e94 e337
00000080: 1c82 de37 588b 643a 08d7 fa35 1dd8 5d35
00000090: f5bd b135 46c4 8939 cd7e 253b 00b7 023c
000000a0: e9c3 b236 8a1c b537 9ea3 b13b 42a9 2b36
000000b0: 2435 5c3a f4c5 603a 80dd 2d32 8e64 3734
000000c0: 06a0 2236 99b9 9437 f3b3 2d3c c47e c030
000000d0: 2d0d 5736 6f69 7037 6421 8b38 387f f832
000000e0: 3f3e 3a38 3e00 5c35 c01d c139 605d 4a32
000000f0: 0cda 473a 8b49 9434 cfb4 9133 fadb b836
00000100: 934e 0637 b3bd 0336 39dd 013a 6761 ee39
00000110: 281e 2339 8ab7 c137 638d f238 be05 b939
00000120: f69c c739 2a92 5238 8364 053a 3121 993a
00000130: ef58 9b36 d5a6 d639 119e 4139 f778 9939
00000140: 1d69 a636 bfdc b939 0f37 7c36 6929 aa36
00000150: 7542 1f39 4c60 af36 e56b 3838 7f4a 5f34
00000160: 5f7d 3b3a 0418 2c3a c8e9 ed30 7dc7 9438
00000170: 9f11 123a 27be 1739 2004 8437 a47a 6438
00000180: af95 9038 6161 d939 c3dc af38 555e 9037
00000190: dfa9 2438 e8bd 5539 1129 8b39 2f4a 823a
000001a0: 1d30 7839 e346 1d38 367d b13a b548 a236
000001b0: 6586 4039 ba43 6c39 441b 9334 c0f7 8036
000001c0: 1c31 7839 ce31 6a39 f9b6 c13a b450 2536
000001d0: c3cc a838 e3e5 4939 17d9 0538 55db db35
000001e0: ec44 003a f9e3 8537 3ecc 6139 c021 d333
000001f0: f1f5 f938 7e95 e636 8a50 4235 f33f a038
00000200: c701 db34 c084 0535 2b30 8d3b 4883 f53a
00000210: e503 b239 ef5f 9038 32f6 1b3a fa76 f43a
00000220: 2042 113b 7224 9f37 d9f2 493b 4d46 e83b
00000230: 64e4 fb36 a2f2 373b 3f70 663a 76c0 ad3a
00000240: d71f f034 89f6 c03a 1b27 a236 0bd5 1a38
00000250: ed0a b239 5aa4 f734 b639 d039 4e22 1535
00000260: 11ed 813b c617 7c3b 8323 cd2d 48b7 b639
00000270: b902 103b da32 4b3a b23c 4139 66dd 1438
00000280: 4bd8 2939 2e05 033b 25d0 0437 cb99 ae36
00000290: 3fbb 3535 bec4 863a 082a c03a f114 b53b
000002a0: f849 8439 661f cc38 2441 d23b 5ce9 a436
000002b0: 593e 1c3a ca19 073a 1e68 3b35 7254 8836
000002c0: 4bb0 1e38 85bb f439 73cd 143c 642b e533
000002d0: 6c8b 9638 450a a039 2327 d839 4b37 c334
000002e0: 1b2c a63a 9ca6 bf35 c22a 8a3a f5ae db33
000002f0: 2c48 fc39 ef17 0436 20f0 5b34 ca04 c838
00000300: 993e 5b37 11f5 8d37 4e66 333c 67c3 be3b
00000310: 2b8b 933a e410 093a 1cde ac3a 8bde 343c
00000320: 8333 4e3c cc9c 4339 cf44 133c a144 c63c
00000330: e978 d438 f9a5 193c 7114 ea3b ba5e 433b
00000340: 0199 9d37 9627 f13b 5c56 e338 d9ec fd39
00000350: 4bde e23a d659 7c36 15fd e03a 51cf 2336
00000360: 2566 123c ecd8 223c 540d d82f 47ed ac3a
00000370: 01e9 e33b 7009 533b 7bf2 823a 6826 0d3a
00000380: 8d7c 043b 9921 e83b 4bdf 0a38 b3e7 d438
00000390: c7e2 f136 8e56 263b c556 033c e138 a23c
000003a0: 0006 0f3b 7200 3b3a 9c85 983c d0af 8f38
000003b0: 6d4f b63b f6ae 923b 422b 0137 c04a 3238
000003c0: abb5 113a 20c5 5f3b 7cca de3c e98d 1e36
000003d0: 43f1 6039 cb5a a63a 9140 2c3b d2ed 9d36
000003e0: ca35 073c e7d9 6937 41cd 9f3b 213c 0736
000003f0: 9a41 e33a 9ef3 9d37 4657 4036 014d 643a

exp_avg_diff f4 [64, 64]
1.07332475e-07 1.0872089e-08 0.0027419168 0.0004004594 -2.5237332e-06 -7.99728e-05 0.00047145688 0.0057739317
0.0051378165 2.0919626e-05 0.0024621475 0.0061525945 0.0010325181 0.0040254025 0.00071124727 -2.0482155e-05
1.2489289e-06 0.0028866788 -1.5236833e-06 -0.00011346759 -2.8288919e-06 -1.6562439e-07 -0.00031625456 -1.8423894e-08
0.0004536549 0.0023441717 -3.1677015e-08 -6.2255153e-06 0.0035554427 0.0009185284 0.002377786 -0.00027773314
-0.00025651022 0.0016566011 -8.624605e-07 -0.0002746335 -3.2476555e-10 0.0013568574 0.00462534 0.004757668
-6.9069383e-06 0.00043188993 0.0035864853 0.00046947345 0.001685994 -0.00054444344 -5.4035394e-07 2.2118602e-08
0.00012261236 0.00019558326 0.006803787 -3.236177e-11 3.5386805e-08 -4.0225677e-06 4.2493997e-05 -1.5919885e-06
-4.4555534e-05 1.2531543e-06 0.00027350293 -2.7094648e-08 0.0010664571 -3.2091507e-06 -4.1224184e-06 2.2504197e-05
3.880704e-08 -1.6279385e-10 0.0013356423 0.00021560153 1.2398457e-06 -6.283818e-05 0.0002019652 0.0014163173
0.0006113692 1.3864207e-05 0.0013427413 0.0018483857 0.00023614785 0.0013733212 2.5003093e-05 -1.8211253e-05
7.8700464e-07 0.001368336 5.486576e-07 -2.2155484e-05 -1.4669288e-06 7.926117e-08 -7.259055e-05 2.9412275e-08
0.0007358216 0.00046434076 -2.809218e-09 -6.4166256e-06 0.0012420367 0.00061161496 0.00046155517 1.3543925e-05
7.885947e-05 0.0013603416 -3.2455938e-07 -0.00025083407 1.6543192e-09 0.00047512804 0.0011483334 0.0004975338
-1.913111e-06 8.524066e-05 0.001337549 0.00017920657 0.0001239526 0.00036344703 8.607538e-09 6.974629e-07
4.9425977e-05 8.3098275e-05 0.0023937852 -2.4389968e-10 3.5924654e-07 -7.7532053e-07 2.4544122e-05 -5.8758894e-07
-3.181851e-05 4.968265e-07 0.00028724608 7.685926e-09 0.00061060203 1.04001906e-07 2.15982e-07 -2.9075115e-06
-6.3752887e-09 -2.6388978e-09 -0.0030061486 -0.001394845 -8.685308e-06 0.00027893393 6.424321e-05 0.0006437937
-0.0006660175 -9.4825955e-06 -0.0014535377 -0.0016909441 2.1446016e-05 -0.00037015587 0.00029705657 0.00012787811
-7.791508e-07 -0.00056386454 2.9403046e-07 -0.00013090928 -8.594488e-07 8.999165e-08 -4.53957e-05 -8.609639e-09
-0.0020100405 -0.0016225395 4.4315884e-09 7.606103e-05 -0.0011500865 -0.0011303042 -0.0003884079 -0.00027717574
0.00029304266 -0.0010705027 -2.7275917e-07 0.00032461356 -1.7033486e-10 -0.00097498234 -0.00014806865 -0.00073021883
-1.7481558e-06 0.00044391662 -0.002926324 0.0002709148 0.00031851968 -0.0003432639 -1.7590322e-07 -9.651854e-07
-9.558001e-05 8.049657e-05 -0.003141018 4.4178677e-13 -1.251753e-07 -2.862885e-07 -0.0001242212 2.8581272e-07
0.000109264045 -2.1434904e-07 -0.001070574 6.496291e-09 -0.0012962032 -8.80838e-08 7.165619e-07 -2.461733e-06
-6.2144956e-08 1.1084153e-07 -0.004585132 0.00076838664 2.4938396e-05 -0.00012465692 -0.00016916078 -0.006549535
-0.008947502 -7.0695346e-06 -0.002916084 -0.009734476 -0.0016857793 -0.004037502 -0.0009844768 -0.00015800098
1.953975e-07 -0.005737751 -2.6826057e-05 -0.00011214346 2.8634326e-05 -5.9786106e-07 -0.00028239217 -3.5461056e-09
-0.00094149273 -0.0041826875 9.159635e-09 -0.00016742309 -0.0037329518 -0.003195212 -0.0027652818 0.000398631
3.8245573e-05 -0.002555365 -5.2468686e-06 1.0371312e-05 -1.4868715e-09 -0.00043592684 -0.005700399 -0.007865711
6.388231e-05 -0.00032972835 -0.0057090716 7.3671465e-05 -0.003381497 -0.0016577339 -1.511802e-06 1.3149413e-06
0.00023286707 -2.6210268e-05 -0.010020944 -1.2807405e-11 -9.87733e-06 -9.359136e-06 -0.0001357178 5.551368e-07
-9.049873e-05 -5.0765226e-07 -0.00024927204 -1.778826e-08 -0.0006848197 -1.1196964e-05 1.0073832e-06 -6.981387e-05
00000000: a77e e633 f4c7 3a32 bbb1 333b c0f4 d139
00000010: 685d 29b6 12b7 a7b8 df2d f739 4033 bd3b
00000020: 215b a83b 8e7c af37 fb5b 213b b49b c93b
00000030: 8f55 873a 86e7 833b ff72 3a3a 18d1 abb7
00000040: dfa0 a735 6f2e 3d3b 5c81 ccb5 73f5 edb8
00000050: fed7 3db6 7cd6 31b4 f8ce a5b9 9242 9eb2
00000060: 88d8 ed39 ada0 193b 3f0d 08b3 c5e4 d0b6
00000070: 6e02 693b 66c9 703a a1d4 1b3b b69c 91b9
00000080: 387c 86b9 4f22 d93a d683 67b5 affc 8fb9
00000090: b08a b2af 94d8 b13a 2a90 973b 36e6 9b3b
000000a0: 26c2 e7b6 496f e239 3d0b 6b3b a923 f639
000000b0: 92fc dc3a fbb8 0eba d70c 11b5 52ff bd32
000000c0: 8191 0039 7b15 4d39 4df2 de3b 1d54 0eae
000000d0: 34fc 1733 98f9 86b6 953b 3238 4fac d5b5
000000e0: 24e1 3ab8 0e32 a835 f164 8f39 c3bd e8b2
000000f0: 5dc8 8b3a ca5c 57b6 4e53 8ab6 65c7 bc37
00000100: cbac 2633 65fe 32af b810 af3a 1813 6239
00000110: c668 a635 fec7 83b8 9fc6 5339 b9a3 b93a
00000120: 4b44 203a 519a 6837 ecfe af3a 8845 f23a
00000130: 759e 7739 0301 b43a bcbd d137 5ec4 98b7
00000140: 8c42 5335 bd59 b33a 7747 1335 8ada b9b7
00000150: 4ae3 c4b5 4a36 aa33 c13b 98b8 47a6 fc32
00000160: 27e4 403a c372 f339 490c 41b1 654e d7b6
00000170: d6cb a23a c954 203a e3fc f139 b73a 6337
00000180: 5b61 a538 7d4d b23a 1a3f aeb4 6182 83b9
00000190: 2f5e e330 9b1a f939 ad83 963a ee6c 023a
000001a0: ff62 00b6 3bc3 b238 b250 af3a 66e9 3b39
000001b0: 46f9 0139 098d be39 5ae0 1332 4939 3b35
000001c0: bd4e 4f38 0c45 ae38 0de1 1c3b d415 86af
000001d0: 78de c034 9f1f 50b5 1ae4 cd37 ceba 1db5
000001e0: dd74 05b8 a85d 0535 8499 9639 0f0b 0432
000001f0: cf10 203a a757 df33 aee8 6734 ab1e 43b6
00000200: a20d dbb1 fb57 35b1 ce02 45bb 3bd3 b6ba
00000210: 1db7 11b7 e13d 9239 50ba 8638 44c4 283a
00000220: ae97 2eba 7017 1fb7 a284 beba aba2 ddba
00000230: f8e6 b337 7b11 c2b9 42be 9b39 0517 0639
00000240: d626 51b5 4fd0 13ba 3ddb 9d34 b144 09b9
00000250: dfb4 66b5 6f41 c133 4367 3eb8 98e9 13b2
00000260: e2ba 03bb 64ab d4ba aa44 9831 f482 9f38
00000270: 80be 96ba b726 94ba 3aa3 cbb9 e651 91b9
00000280: 85a3 9939 1c50 8cba bc6f 92b4 e530 aa39
00000290: 0049 3baf f595 7fba e042 1bb9 286c 3fba
000002a0: 2da2 eab5 7bbd e839 92c7 3fbb 9209 8e39
000002b0: fdfe a639 1af8 b3b9 e9df 3cb4 858b 81b5
000002c0: 2172 c8b8 44d0 a838 8ad9 4dbb 2fb4 f82a
000002d0: ed67 06b4 31b3 99b4 6041 02b9 cd71 9934
000002e0: b024 e538 d127 66b4 8152 8cba fb35 df31
000002f0: 5de5 a9ba 9528 bdb3 c259 4035 4034 25b6
00000300: 8d74 85b3 c707 ee33 e03e 96bb 8e6d 493a
00000310: cc32 d137 56b6 02b9 c060 31b9 7b9d d6bb
00000320: 8b98 12bc d736 edb6 c51b 3fbb 5a7d 1fbc
00000330: 5ef5 dcba 064d 84bb 8f09 81ba 11ad 25b9
00000340: 75ce 5134 be03 bcbb 8508 e1b7 902e ebb8
00000350: bf33 f037 b37c 20b5 090e 94b9 c0af 73b1
00000360: 82ce 76ba ed0e 89bb 805c 1d32 4b8e 2fb9
00000370: 8aa4 74bb c366 51bb bb39 35bb 59ff d039
00000380: df69 2038 e977 27bb 420e b0b6 7200 2e37
00000390: a45a ccb0 1c8d e4b9 6aca babb 2fdf 00bc
000003a0: 8ef8 8538 64df acb9 2a13 bbbb 1180 9a38
000003b0: 1b9c 5dbb 5248 d9ba 1fe9 cab5 0a7d b035
000003c0: c72d 7439 1fde dbb7 e32e 24bc 6d4f 61ad
000003d0: cfb6 25b7 2f05 1db7 784f 0eb9 b604 1535
000003e0: 23ca bdb8 9945 08b5 bab0 82b9 cccc 98b2
000003f0: 7985 33ba 98da 3bb7 6c35 8735 0969 92b8
