trial2/checkpoints/df_ep0003.pth (torch, 574277 bytes, 142 tensors)

exp_avg f4 [64, 75]
00000000: 1a03 13b5 87eb 9cb6 3a4d f0b6 1d93 9cb5
00000010: c7ad a0b6 2cf9 d5b6 4c35 32b6 e435 c9b5
00000020: 96e0 7135 5bc7 9db6 ca20 27b7 d485 11b7
00000030: 263d 40b6 fc20 a3b5 737e e736 dd15 b0b6
00000040: 7cd3 91b7 f351 8235 22d1 2a37 754b 61b6
00000050: e04d 5037 0000 0000 0000 0000 0000 0000
00000060: 0000 0000 0000 0000 0000 0000 0000 0000
00000070: 0000 0000 0000 0000 0000 0000 0000 0000
00000080: 0000 0000 0000 0000 0000 0000 0000 0000
00000090: 0000 0000 0000 0000 0000 0000 0000 0000
000000a0: 0000 0000 0000 0000 0000 0000 0000 0000
000000b0: 0000 0000 0000 0000 0000 0000 0000 0000
000000c0: 0000 0000 0000 0000 0000 0000 0000 0000
000000d0: 0000 0000 0000 0000 0000 0000 0000 0000
000000e0: 0000 0000 0000 0000 0000 0000 0000 0000
000000f0: 0000 0000 0000 0000 0000 0000 0000 0000
00000100: 0000 0000 0000 0000 0000 0000 0000 0000
00000110: 0000 0000 0000 0000 0000 0000 0000 0000
00000120: 0000 0000 0000 0000 0000 0000 40fa 4d36
00000130: fc68 ceb4 7fe2 99b6 929d 1b36 5d65 35b4
00000140: 1308 81b6 0b9d aa36 c040 b536 116c 8b36
00000150: 72d9 8335 a50e 5235 7e3f 85b6 91f0 6936
00000160: 332a 8436 f709 f533 dc4c 2db7 aad0 dd36
00000170: 6689 d236 3231 d436 fda3 5d36 2b38 74b5
00000180: 0000 0000 0000 0000 0000 0000 0000 0000
00000190: 0000 0000 0000 0000 0000 0000 0000 0000
000001a0: 0000 0000 0000 0000 0000 0000 0000 0000
000001b0: 0000 0000 0000 0000 0000 0000 0000 0000
000001c0: 0000 0000 0000 0000 0000 0000 0000 0000
000001d0: 0000 0000 0000 0000 0000 0000 0000 0000
000001e0: 0000 0000 0000 0000 0000 0000 0000 0000
000001f0: 0000 0000 0000 0000 0000 0000 0000 0000
00000200: 0000 0000 0000 0000 0000 0000 0000 0000
00000210: 0000 0000 0000 0000 0000 0000 0000 0000
00000220: 0000 0000 0000 0000 0000 0000 0000 0000
00000230: 0000 0000 0000 0000 0000 0000 0000 0000
00000240: 0000 0000 0000 0000 0000 0000 0000 0000
00000250: 0000 0000 0000 0000 71f5 04bc 614c 46bb
00000260: cf08 d03b babf fbbb c816 45bb d25c c53b
00000270: 4018 093d e0be 153d e225 063d e2c7 54bc
00000280: 8618 c1bb 7973 283c 96fa c53c e464 103d
00000290: 8912 b33c b90b 4fbc b754 30bc 078d 373c
000002a0: 6fb3 ee3a a098 f73c da4c 8fba 0000 0000
000002b0: 0000 0000 0000 0000 0000 0000 0000 0000
000002c0: 0000 0000 0000 0000 0000 0000 0000 0000
000002d0: 0000 0000 0000 0000 0000 0000 0000 0000
000002e0: 0000 0000 0000 0000 0000 0000 0000 0000
000002f0: 0000 0000 0000 0000 0000 0000 0000 0000
00000300: 0000 0000 0000 0000 0000 0000 0000 0000
00000310: 0000 0000 0000 0000 0000 0000 0000 0000
00000320: 0000 0000 0000 0000 0000 0000 0000 0000
00000330: 0000 0000 0000 0000 0000 0000 0000 0000
00000340: 0000 0000 0000 0000 0000 0000 0000 0000
00000350: 0000 0000 0000 0000 0000 0000 0000 0000
00000360: 0000 0000 0000 0000 0000 0000 0000 0000
00000370: 0000 0000 0000 0000 0000 0000 0000 0000
00000380: 0000 0000 9b6b 1d39 f965 1a3a 23b7 df3a
00000390: 16f8 1439 8153 1a3a d6a6 da3a 3b62 0ebb
000003a0: e582 0abb 5d8a 10bb 66e5 8039 affa 993a
000003b0: ad79 4b3b 4df9 13bb 3228 08bb 4e3b 1bbb
000003c0: 6967 bb39 2498 173b 4ba3 903b 9886 03bb
000003d0: 2b32 f9ba bddd 0fbb 0000 0000 0000 0000
000003e0: 0000 0000 0000 0000 0000 0000 0000 0000
000003f0: 0000 0000 0000 0000 0000 0000 0000 0000
-5.476628e-07 -4.6765813e-06 -7.1615477e-06 -1.1665721e-06 -4.788602e-06 -6.376902e-06 -2.655509e-06 -1.4991351e-06
9.010631e-07 -4.7021726e-06 -9.96161e-06 -8.673833e-06 -2.8645823e-06 -1.2154046e-06 6.899057e-06 -5.247754e-06
-1.7383827e-05 9.709605e-07 1.0181482e-05 -3.3571534e-06 1.2415898e-05 0.0 0.0 0.0
0.0 0.0 0.0 0.0 0.0 0.0 0.0 0.0
0.0 0.0 0.0 0.0 0.0 0.0 0.0 0.0
0.0 0.0 0.0 0.0 0.0 0.0 0.0 0.0
0.0 0.0 0.0 0.0 0.0 0.0 0.0 0.0
0.0 0.0 0.0 0.0 0.0 0.0 0.0 0.0
0.0 0.0 0.0 0.0 0.0 0.0 0.0 0.0
0.0 0.0 0.0 3.0693045e-06 -3.8446876e-07 -4.586123e-06 2.3188518e-06 -1.6893814e-07
-3.8454396e-06 5.084677e-06 5.4017582e-06 4.1551034e-06 9.823545e-07 7.8252407e-07 -3.9711003e-06 3.4859734e-06
3.938819e-06 1.1410514e-07 -1.0329499e-05 6.610605e-06 6.274483e-06 6.3238194e-06 3.302702e-06 -9.097882e-07
0.0 0.0 0.0 0.0 0.0 0.0 0.0 0.0
0.0 0.0 0.0 0.0 0.0 0.0 0.0 0.0
0.0 0.0 0.0 0.0 0.0 0.0 0.0 0.0
0.0 0.0 0.0 0.0 0.0 0.0 0.0 0.0
0.0 0.0 0.0 0.0 0.0 0.0 0.0 0.0
0.0 0.0 0.0 0.0 0.0 0.0 0.0 0.0
0.0 0.0 0.0 0.0 0.0 0.0 -0.008115158 -0.0030257928
0.0063487063 -0.0076827677 -0.0030073393 0.006023028 0.033470392 0.036558986 0.03275097 -0.012987109
-0.005892816 0.010281437 0.02416734 0.035252467 0.021859424 -0.012637072 -0.010762385 0.011203057
0.0018211434 0.030224144 -0.0010932938 0.0 0.0 0.0 0.0 0.0
0.0 0.0 0.0 0.0 0.0 0.0 0.0 0.0
0.0 0.0 0.0 0.0 0.0 0.0 0.0 0.0
0.0 0.0 0.0 0.0 0.0 0.0 0.0 0.0
0.0 0.0 0.0 0.0 0.0 0.0 0.0 0.0
0.0 0.0 0.0 0.0 0.0 0.0 0.0 0.0
0.0 0.0 0.0 0.0 0.0 0.0 0.0 0.0
0.0 0.00015012773 0.0005889829 0.0017068129 0.00014206799 0.0005887077 0.0016681801 -0.002172603
-0.0021135148 -0.0022055127 0.00024584978 0.0011747683 0.0031047866 -0.0022579015 -0.0020775911 -0.0023686471
0.00035744466 0.0023131454 0.0044139973 -0.0020069238 -0.0019012144 -0.0021952235 0.0 0.0
0.0 0.0 0.0 0.0 0.0 0.0 0.0 0.0

exp_avg_sq f4 [64, 75]
00000000: 5e47 3f37 b1df bc36 0477 3236 f0df e536
00000010: d90c ac36 59e7 1a36 cc30 9836 21f5 de36
00000020: 0385 fd36 9152 c936 c099 8237 cf55 ce36
00000030: 1d6b 6d37 4b65 b036 3be1 0437 9660 2a38
00000040: 1efb ad37 c175 dc36 f7a4 0f37 c88b b837
00000050: a075 8037 0000 0000 0000 0000 0000 0000
00000060: 0000 0000 0000 0000 0000 0000 0000 0000
00000070: 0000 0000 0000 0000 0000 0000 0000 0000
00000080: 0000 0000 0000 0000 0000 0000 0000 0000
00000090: 0000 0000 0000 0000 0000 0000 0000 0000
000000a0: 0000 0000 0000 0000 0000 0000 0000 0000
000000b0: 0000 0000 0000 0000 0000 0000 0000 0000
000000c0: 0000 0000 0000 0000 0000 0000 0000 0000
000000d0: 0000 0000 0000 0000 0000 0000 0000 0000
000000e0: 0000 0000 0000 0000 0000 0000 0000 0000
000000f0: 0000 0000 0000 0000 0000 0000 0000 0000
00000100: 0000 0000 0000 0000 0000 0000 0000 0000
00000110: 0000 0000 0000 0000 0000 0000 0000 0000
00000120: 0000 0000 0000 0000 0000 0000 935e b836
00000130: 7b9f 4835 9a35 9a36 5b34 8536 ef99 4035
00000140: 5e05 6036 b431 8c36 fd80 e536 6d7e a836
00000150: 5232 c936 e0b5 3036 f197 9536 1dc1 b736
00000160: 64d5 cb36 83e0 c336 80b1 b437 6fc3 2037
00000170: 509e bd36 1276 4937 4e9e c236 ffbd c936
00000180: 0000 0000 0000 0000 0000 0000 0000 0000
00000190: 0000 0000 0000 0000 0000 0000 0000 0000
000001a0: 0000 0000 0000 0000 0000 0000 0000 0000
000001b0: 0000 0000 0000 0000 0000 0000 0000 0000
000001c0: 0000 0000 0000 0000 0000 0000 0000 0000
000001d0: 0000 0000 0000 0000 0000 0000 0000 0000
000001e0: 0000 0000 0000 0000 0000 0000 0000 0000
000001f0: 0000 0000 0000 0000 0000 0000 0000 0000
00000200: 0000 0000 0000 0000 0000 0000 0000 0000
00000210: 0000 0000 0000 0000 0000 0000 0000 0000
00000220: 0000 0000 0000 0000 0000 0000 0000 0000
00000230: 0000 0000 0000 0000 0000 0000 0000 0000
00000240: 0000 0000 0000 0000 0000 0000 0000 0000
00000250: 0000 0000 0000 0000 fe75 943c 554b 813b
00000260: 6671 d93c 23a3 8a3c 1f60 7d3b 8563 c53c
00000270: f2f2 c83d 2d6a df3d 94c7 c93d 24c2 643d
00000280: 0dde 6e3c 6f14 953d 1253 923d 1929 d03d
00000290: da3c 9e3d d623 fe3d 35bc 3f3d 7894 f23d
000002a0: 3d7b 8e3d ed4e a83d 53c1 c03d 0000 0000
000002b0: 0000 0000 0000 0000 0000 0000 0000 0000
000002c0: 0000 0000 0000 0000 0000 0000 0000 0000
000002d0: 0000 0000 0000 0000 0000 0000 0000 0000
000002e0: 0000 0000 0000 0000 0000 0000 0000 0000
000002f0: 0000 0000 0000 0000 0000 0000 0000 0000
00000300: 0000 0000 0000 0000 0000 0000 0000 0000
00000310: 0000 0000 0000 0000 0000 0000 0000 0000
00000320: 0000 0000 0000 0000 0000 0000 0000 0000
00000330: 0000 0000 0000 0000 0000 0000 0000 0000
00000340: 0000 0000 0000 0000 0000 0000 0000 0000
00000350: 0000 0000 0000 0000 0000 0000 0000 0000
00000360: 0000 0000 0000 0000 0000 0000 0000 0000
00000370: 0000 0000 0000 0000 0000 0000 0000 0000
00000380: 0000 0000 809f 4e3a 2d4d 163a 6508 ab3a
00000390: 573f 3f3a 71b4 113a cae1 9f3a 2fa6 073c
000003a0: 2cba 093c 3d65 023c 208c 1d3b 3180 053b
000003b0: bb03 843b 0434 f33b d676 f73b 2a43 d03b
000003c0: c466 c43b 64be c53b 7979 0b3c 1f6d e63b
000003d0: 6c44 ba3b 8759 ab3b 0000 0000 0000 0000
000003e0: 0000 0000 0000 0000 0000 0000 0000 0000
000003f0: 0000 0000 0000 0000 0000 0000 0000 0000
1.1401104e-05 5.6288777e-06 2.6593343e-06 6.8508016e-06 5.127495e-06 2.308245e-06 4.5356337e-06 6.6446523e-06
7.555472e-06 5.999879e-06 1.5568803e-05 6.149268e-06 1.415124e-05 5.257001e-06 7.920254e-06 4.062111e-05
2.0740143e-05 6.5702193e-06 8.561873e-06 2.19996e-05 1.5313562e-05 0.0 0.0 0.0
0.0 0.0 0.0 0.0 0.0 0.0 0.0 0.0
0.0 0.0 0.0 0.0 0.0 0.0 0.0 0.0
0.0 0.0 0.0 0.0 0.0 0.0 0.0 0.0
0.0 0.0 0.0 0.0 0.0 0.0 0.0 0.0
0.0 0.0 0.0 0.0 0.0 0.0 0.0 0.0
0.0 0.0 0.0 0.0 0.0 0.0 0.0 0.0
0.0 0.0 0.0 5.494637e-06 7.473788e-07 4.5957977e-06 3.969804e-06 7.1749577e-07
3.3381725e-06 4.1781113e-06 6.839748e-06 5.021508e-06 5.996125e-06 2.633191e-06 4.4582343e-06 5.4763063e-06
6.0747134e-06 5.8375895e-06 2.1540327e-05 9.582246e-06 5.651069e-06 1.2008024e-05 5.8000796e-06 6.0123853e-06
0.0 0.0 0.0 0.0 0.0 0.0 0.0 0.0
0.0 0.0 0.0 0.0 0.0 0.0 0.0 0.0
0.0 0.0 0.0 0.0 0.0 0.0 0.0 0.0
0.0 0.0 0.0 0.0 0.0 0.0 0.0 0.0
0.0 0.0 0.0 0.0 0.0 0.0 0.0 0.0
0.0 0.0 0.0 0.0 0.0 0.0 0.0 0.0
0.0 0.0 0.0 0.0 0.0 0.0 0.01812267 0.003945748
0.02654333 0.016923493 0.003866203 0.024095306 0.09811963 0.10908923 0.0985252 0.05584921
0.014579308 0.07279288 0.07144751 0.10164089 0.0772645 0.12409179 0.046810348 0.118447244
0.069570996 0.08218179 0.09411874 0.0 0.0 0.0 0.0 0.0
0.0 0.0 0.0 0.0 0.0 0.0 0.0 0.0
0.0 0.0 0.0 0.0 0.0 0.0 0.0 0.0
0.0 0.0 0.0 0.0 0.0 0.0 0.0 0.0
0.0 0.0 0.0 0.0 0.0 0.0 0.0 0.0
0.0 0.0 0.0 0.0 0.0 0.0 0.0 0.0
0.0 0.0 0.0 0.0 0.0 0.0 0.0 0.0
0.0 0.0007882044 0.0005733546 0.0013048766 0.000729551 0.0005558199 0.0012198028 0.008279367
0.008406203 0.007958707 0.002403982 0.0020370597 0.004028765 0.007421972 0.007552008 0.006355663
0.005993696 0.006034659 0.008512848 0.007032051 0.005684426 0.0052291784 0.0 0.0
0.0 0.0 0.0 0.0 0.0 0.0 0.0 0.0

exp_avg_diff f4 [64, 75]
00000000: e730 57b4 3ecf 86b3 8164 60b3 930e 32b4
00000010: 74bb 85b3 8c34 80b3 160d 1030 323c d5b3
00000020: 57c6 d3b3 4334 25b4 f8fa 02b4 52b2 18b4
00000030: a81a 7134 be3d c5b3 9ff9 66b3 e069 de34
00000040: 71d7 73b4 1d37 d3b3 64dc 9834 a95b 93b3
00000050: e968 8c34 0000 0000 0000 0000 0000 0000
00000060: 0000 0000 0000 0000 0000 0000 0000 0000
00000070: 0000 0000 0000 0000 0000 0000 0000 0000
00000080: 0000 0000 0000 0000 0000 0000 0000 0000
00000090: 0000 0000 0000 0000 0000 0000 0000 0000
000000a0: 0000 0000 0000 0000 0000 0000 0000 0000
000000b0: 0000 0000 0000 0000 0000 0000 0000 0000
000000c0: 0000 0000 0000 0000 0000 0000 0000 0000
000000d0: 0000 0000 0000 0000 0000 0000 0000 0000
000000e0: 0000 0000 0000 0000 0000 0000 0000 0000
000000f0: 0000 0000 0000 0000 0000 0000 0000 0000
00000100: 0000 0000 0000 0000 0000 0000 0000 0000
00000110: 0000 0000 0000 0000 0000 0000 0000 0000
00000120: 0000 0000 0000 0000 0000 0000 ca9a 6ab1
00000130: 9ea5 70b1 ca22 2731 8401 a7b1 f2bc 80b1
00000140: 53d9 3131 bd32 6932 65dd 2f32 a0c2 3932
00000150: 1de0 7bb2 853b 11b2 dd76 cd31 6044 6032
00000160: da19 1832 4bea 4832 e682 37b2 88a7 82b2
00000170: 6752 8532 c8d4 15b3 f57e 5bb1 c4b9 3432
00000180: 0000 0000 0000 0000 0000 0000 0000 0000
00000190: 0000 0000 0000 0000 0000 0000 0000 0000
000001a0: 0000 0000 0000 0000 0000 0000 0000 0000
000001b0: 0000 0000 0000 0000 0000 0000 0000 0000
000001c0: 0000 0000 0000 0000 0000 0000 0000 0000
000001d0: 0000 0000 0000 0000 0000 0000 0000 0000
000001e0: 0000 0000 0000 0000 0000 0000 0000 0000
000001f0: 0000 0000 0000 0000 0000 0000 0000 0000
00000200: 0000 0000 0000 0000 0000 0000 0000 0000
00000210: 0000 0000 0000 0000 0000 0000 0000 0000
00000220: 0000 0000 0000 0000 0000 0000 0000 0000
00000230: 0000 0000 0000 0000 0000 0000 0000 0000
00000240: 0000 0000 0000 0000 0000 0000 0000 0000
00000250: 0000 0000 0000 0000 7751 84bb fe61 b2ba
00000260: 8bab 4cbb 0f26 82bb 2149 afba dece 46bb
00000270: c604 133c 0d84 203c 4c4a 293c 2c99 f7bb
00000280: 8656 26bb 3d1f b6bb 8cdb c53b 4adc 173c
00000290: 5448 383c 6078 46bc c3c4 85bb ea49 f8bb
000002a0: 5c41 8bbb f598 f53b 79fa 593c 0000 0000
000002b0: 0000 0000 0000 0000 0000 0000 0000 0000
000002c0: 0000 0000 0000 0000 0000 0000 0000 0000
000002d0: 0000 0000 0000 0000 0000 0000 0000 0000
000002e0: 0000 0000 0000 0000 0000 0000 0000 0000
000002f0: 0000 0000 0000 0000 0000 0000 0000 0000
00000300: 0000 0000 0000 0000 0000 0000 0000 0000
00000310: 0000 0000 0000 0000 0000 0000 0000 0000
00000320: 0000 0000 0000 0000 0000 0000 0000 0000
00000330: 0000 0000 0000 0000 0000 0000 0000 0000
00000340: 0000 0000 0000 0000 0000 0000 0000 0000
00000350: 0000 0000 0000 0000 0000 0000 0000 0000
00000360: 0000 0000 0000 0000 0000 0000 0000 0000
00000370: 0000 0000 0000 0000 0000 0000 0000 0000
00000380: 0000 0000 b152 243a 31dc 2cba 5224 8a39
00000390: 8c63 223a 3cc3 2aba f4fb 8639 a940 153b
000003a0: 8655 163b c87e 1c3b eeaf 9c3a fd9c a4ba
000003b0: 9d86 fc39 967f 013b f876 053b ae0b 1d3b
000003c0: 60b7 063b 9a3c 0dbb a3ed 473a 7586 713a
000003d0: a1cb 8f3a 0074 173b 0000 0000 0000 0000
000003e0: 0000 0000 0000 0000 0000 0000 0000 0000
000003f0: 0000 0000 0000 0000 0000 0000 0000 0000
-2.0041226e-07 -6.2775584e-08 -5.2245472e-08 -1.6582844e-07 -6.227393e-08 -5.970023e-08 5.240549e-10 -9.929535e-08
-9.861531e-08 -1.5385835e-07 -1.2198495e-07 -1.4220976e-07 2.2454572e-07 -9.184758e-08 -5.3778077e-08 4.1427757e-07
-2.2709516e-07 -9.835478e-08 2.8472562e-07 -6.861894e-08 2.6153364e-07 0.0 0.0 0.0
0.0 0.0 0.0 0.0 0.0 0.0 0.0 0.0
0.0 0.0 0.0 0.0 0.0 0.0 0.0 0.0
0.0 0.0 0.0 0.0 0.0 0.0 0.0 0.0
0.0 0.0 0.0 0.0 0.0 0.0 0.0 0.0
0.0 0.0 0.0 0.0 0.0 0.0 0.0 0.0
0.0 0.0 0.0 0.0 0.0 0.0 0.0 0.0
0.0 0.0 0.0 -3.413947e-09 -3.501874e-09 2.4321474e-09 -4.860512e-09 -3.746771e-09
2.5880424e-09 1.35739215e-08 1.023668e-08 1.081267e-08 -1.466108e-08 -8.453644e-09 5.9797984e-09 1.3054063e-08
8.853442e-09 1.1694804e-08 -1.0681765e-08 -1.5210176e-08 1.552071e-08 -3.488529e-08 -3.194086e-09 1.0519617e-08
0.0 0.0 0.0 0.0 0.0 0.0 0.0 0.0
0.0 0.0 0.0 0.0 0.0 0.0 0.0 0.0
0.0 0.0 0.0 0.0 0.0 0.0 0.0 0.0
0.0 0.0 0.0 0.0 0.0 0.0 0.0 0.0
0.0 0.0 0.0 0.0 0.0 0.0 0.0 0.0
0.0 0.0 0.0 0.0 0.0 0.0 0.0 0.0
0.0 0.0 0.0 0.0 0.0 0.0 -0.0040380317 -0.0013609526
-0.0031230177 -0.003971822 -0.0013373235 -0.0030335705 0.008973306 0.009797108 0.010332655 -0.0075561013
-0.0025381162 -0.005557923 0.006038135 0.00926883 0.011247713 -0.012113661 -0.0040822937 -0.0075771706
-0.004249735 0.0074950405 0.013304346 0.0 0.0 0.0 0.0 0.0
0.0 0.0 0.0 0.0 0.0 0.0 0.0 0.0
0.0 0.0 0.0 0.0 0.0 0.0 0.0 0.0
0.0 0.0 0.0 0.0 0.0 0.0 0.0 0.0
0.0 0.0 0.0 0.0 0.0 0.0 0.0 0.0
0.0 0.0 0.0 0.0 0.0 0.0 0.0 0.0
0.0 0.0 0.0 0.0 0.0 0.0 0.0 0.0
0.0 0.00062684255 -0.00065940904 0.00026348472 0.0006194643 -0.00065140775 0.0002574619 0.0022774136
0.002293916 0.0023879278 0.0011954287 -0.0012558993 0.0004816548 0.0019759885 0.00203651 0.002396326
0.0020556077 -0.0021551014 0.0007626658 0.0009213456 0.001097072 0.0023109913 0.0 0.0
0.0 0.0 0.0 0.0 0.0 0.0 0.0 0.0

neg_pre_grad f4 [64, 75]
00000000: 4baa 1b36 4bd5 8535 c998 ae34 91d1 ff35
00000010: c245 8435 2de4 f934 d93d 42b4 a60f 8635
00000020: 959f 9e35 3e9e e235 2a13 0036 7ebc c635
00000030: eb86 41b6 0ed2 5d35 552c 8735 4138 b0b6
00000040: 9052 6436 37a7 0436 8098 67b6 d57f ad34
00000050: 4d50 38b6 0000 0000 0000 0000 0000 0000
00000060: 0000 0000 0000 0000 0000 0000 0000 0000
00000070: 0000 0000 0000 0000 0000 0000 0000 0000
00000080: 0000 0000 0000 0000 0000 0000 0000 0000
00000090: 0000 0000 0000 0000 0000 0000 0000 0000
000000a0: 0000 0000 0000 0000 0000 0000 0000 0000
000000b0: 0000 0000 0000 0000 0000 0000 0000 0000
000000c0: 0000 0000 0000 0000 0000 0000 0000 0000
000000d0: 0000 0000 0000 0000 0000 0000 0000 0000
000000e0: 0000 0000 0000 0000 0000 0000 0000 0000
000000f0: 0000 0000 0000 0000 0000 0000 0000 0000
00000100: 0000 0000 0000 0000 0000 0000 0000 0000
00000110: 0000 0000 0000 0000 0000 0000 0000 0000
00000120: 0000 0000 0000 0000 0000 0000 0000 0000
00000130: 0000 0000 0000 0000 0000 0000 0000 0000
00000140: 0000 0000 0000 0000 0000 0000 0000 0000
00000150: 0000 0000 0000 0000 0000 0000 0000 0000
00000160: 0000 0000 0000 0000 0000 0000 0000 0000
00000170: 0000 0000 0000 0000 0000 0000 0000 0000
00000180: 0000 0000 0000 0000 0000 0000 0000 0000
00000190: 0000 0000 0000 0000 0000 0000 0000 0000
000001a0: 0000 0000 0000 0000 0000 0000 0000 0000
000001b0: 0000 0000 0000 0000 0000 0000 0000 0000
000001c0: 0000 0000 0000 0000 0000 0000 0000 0000
000001d0: 0000 0000 0000 0000 0000 0000 0000 0000
000001e0: 0000 0000 0000 0000 0000 0000 0000 0000
000001f0: 0000 0000 0000 0000 0000 0000 0000 0000
00000200: 0000 0000 0000 0000 0000 0000 0000 0000
00000210: 0000 0000 0000 0000 0000 0000 0000 0000
00000220: 0000 0000 0000 0000 0000 0000 0000 0000
00000230: 0000 0000 0000 0000 0000 0000 0000 0000
00000240: 0000 0000 0000 0000 0000 0000 0000 0000
00000250: 0000 0000 0000 0000 db65 7c3d 3b24 8a3c
00000260: 7489 a33c 127b 773d 3cd2 873c 7b15 9f3c
00000270: 51c2 01be 6330 0ebe 0e66 10be 2868 e93d
00000280: 0217 013d fe79 123d 3208 afbd 58ab 07be
00000290: 4b81 0fbe 5acb 373e 7e28 513d 2b7d 483d
000002a0: db26 583d 7c94 e3bd 8e6e 05be 0000 0000
000002b0: 0000 0000 0000 0000 0000 0000 0000 0000
000002c0: 0000 0000 0000 0000 0000 0000 0000 0000
000002d0: 0000 0000 0000 0000 0000 0000 0000 0000
000002e0: 0000 0000 0000 0000 0000 0000 0000 0000
000002f0: 0000 0000 0000 0000 0000 0000 0000 0000
00000300: 0000 0000 0000 0000 0000 0000 0000 0000
00000310: 0000 0000 0000 0000 0000 0000 0000 0000
00000320: 0000 0000 0000 0000 0000 0000 0000 0000
00000330: 0000 0000 0000 0000 0000 0000 0000 0000
00000340: 0000 0000 0000 0000 0000 0000 0000 0000
00000350: 0000 0000 0000 0000 0000 0000 0000 0000
00000360: 0000 0000 0000 0000 0000 0000 0000 0000
00000370: 0000 0000 0000 0000 0000 0000 0000 0000
00000380: 0000 0000 f645 f8bb f9de dc3b 3df5 8dbb
00000390: 4462 f5bb bb1a da3b 0083 8bbb 2833 babc
000003a0: 68ee bcbc 66f4 c4bc 6fde 6cbc fb08 523c
000003b0: 80a6 04bc 06b5 9cbc 8003 a7bc 8bd1 c5bc
000003c0: 57c9 cbbc f24b b33c 35a3 5cbc 532d d8bb
000003d0: 4536 2ebc 3c51 c0bc 0000 0000 0000 0000
000003e0: 0000 0000 0000 0000 0000 0000 0000 0000
000003f0: 0000 0000 0000 0000 0000 0000 0000 0000
2.3195923e-06 9.971349e-07 3.2521191e-07 1.9059972e-06 9.855069e-07 4.6545884e-07 -1.8090158e-07 9.988332e-07
1.1818362e-06 1.6884367e-06 1.9084641e-06 1.4807008e-06 -2.8837774e-06 8.2634585e-07 1.0071186e-06 -5.2517576e-06
3.4022705e-06 1.9766865e-06 -3.451045e-06 3.231677e-07 -2.7464878e-06 0.0 0.0 0.0
0.0 0.0 0.0 0.0 0.0 0.0 0.0 0.0
0.0 0.0 0.0 0.0 0.0 0.0 0.0 0.0
0.0 0.0 0.0 0.0 0.0 0.0 0.0 0.0
0.0 0.0 0.0 0.0 0.0 0.0 0.0 0.0
0.0 0.0 0.0 0.0 0.0 0.0 0.0 0.0
0.0 0.0 0.0 0.0 0.0 0.0 0.0 0.0
0.0 0.0 0.0 0.0 0.0 0.0 0.0 0.0
0.0 0.0 0.0 0.0 0.0 0.0 0.0 0.0
0.0 0.0 0.0 0.0 0.0 0.0 0.0 0.0
0.0 0.0 0.0 0.0 0.0 0.0 0.0 0.0
0.0 0.0 0.0 0.0 0.0 0.0 0.0 0.0
0.0 0.0 0.0 0.0 0.0 0.0 0.0 0.0
0.0 0.0 0.0 0.0 0.0 0.0 0.0 0.0
0.0 0.0 0.0 0.0 0.0 0.0 0.0 0.0
0.0 0.0 0.0 0.0 0.0 0.0 0.0 0.0
0.0 0.0 0.0 0.0 0.0 0.0 0.061620574 0.01686298
0.019963004 0.060420103 0.01657974 0.019419422 -0.12671782 -0.13885646 -0.14101431 0.11396819
0.031516083 0.035760872 -0.08546485 -0.13248956 -0.14014165 0.17948666 0.051064007 0.048947494
0.05277143 -0.111123055 -0.13030455 0.0 0.0 0.0 0.0 0.0
0.0 0.0 0.0 0.0 0.0 0.0 0.0 0.0
0.0 0.0 0.0 0.0 0.0 0.0 0.0 0.0
0.0 0.0 0.0 0.0 0.0 0.0 0.0 0.0
0.0 0.0 0.0 0.0 0.0 0.0 0.0 0.0
0.0 0.0 0.0 0.0 0.0 0.0 0.0 0.0
0.0 0.0 0.0 0.0 0.0 0.0 0.0 0.0
0.0 -0.0075766994 0.0067404476 -0.004332213 -0.007488521 0.0066560186 -0.00425756 -0.022729471
-0.0230629 -0.02404232 -0.014457329 0.012819524 -0.008096337 -0.019129287 -0.020387411 -0.02414777
-0.02487628 0.0218868 -0.013466646 -0.0065972 -0.010633056 -0.023476236 0.0 0.0
0.0 0.0 0.0 0.0 0.0 0.0 0.0 0.0

exp_avg f4 [64]
00000000: 51f1 e6b5 225e cb36 be98 173d 9435 0bbb
00000010: c0a7 a43c 1a8b 1c3a 2ddb 5fb8 8a4a d4bc
00000020: f90f 1fbd 692d 0239 afe2 433c 575c bd3a
00000030: ce3e 2fbc 3c69 ee3b bdb9 8bba 195a 2b3c
00000040: 2caa 4037 c7e1 c5bc 5b4c 5f36 cca4 2cbc
00000050: 476b 1eba 5a8f 1837 dc73 33bc c886 ae36
00000060: 1d30 a23c a135 a73c 96e0 ac34 6d2d 273c
00000070: 9510 653c fdc5 263c 3f38 273b efb7 bebb
00000080: 1f2d a83b d94f dc3c f636 b339 889b ba3c
00000090: d7bc 7137 156f 97bb 1aa4 41bd 8824 a33d
000000a0: 0643 de3a feeb ca3b 6c0c 033c 8631 213c
000000b0: 79a2 42bd 4e01 86bc c7b5 fe38 e1de 4638
000000c0: 71ab ce3b b8d2 2a3b 9a1a 2f3c e12e cb36
000000d0: 5284 1539 2347 ed39 a845 873c 6e7b 9a36
000000e0: 4adb 833b 88b1 0838 3d66 193a 49ec 3036
000000f0: a3d7 1bba 7238 0db8 09b3 80bb debc a2b9
-1.7206568e-06 6.06083e-06 0.0370109 -0.0021241652 0.02009952 0.00059716555 -5.3371466e-05 -0.02591445
-0.038833592 0.00012414683 0.011955901 0.0014447075 -0.010696126 0.0072757285 -0.0010660213 0.010458493
1.1483713e-05 -0.02415551 3.3274034e-06 -0.0105373375 -0.0006043207 9.093283e-06 -0.010952916 5.2012947e-06
0.019798333 0.020411314 3.2200904e-07 0.010203701 0.013981004 0.01017904 0.0025515703 -0.0058202664
0.005132332 0.026893543 0.0003418249 0.022779241 1.4408687e-05 -0.0046213963 -0.04727564 0.07965952
0.001695723 0.0061926832 0.007998567 0.009838467 -0.047518227 -0.016358044 0.000121455225 4.741445e-05
0.0063070585 0.002606554 0.010687495 6.055329e-06 0.0001425904 0.00045257164 0.016512707 4.6039268e-06
0.004023944 3.2590266e-05 0.00058517215 2.636358e-06 -0.0005944913 -3.366959e-05 -0.0039275927 -0.00031039765

exp_avg_sq f4 [64]
00000000: 7bc7 0937 f957 f236 ce20 e53d b831 0f3c
00000010: b5e0 7f3d d98a b63d fe7c 8e3b a706 3d3e
00000020: 8850 d33e 34dd 5b3a 77ee 7a3d 7730 da3d
00000030: 6363 1f3d 5608 003d 0402 4b3f c8b2 363c
00000040: a1b3 ee37 3e1f e43d c21c e138 3688 953d
00000050: e6a7 3a3b 2c3b 5136 8203 3a3e 3cfc 9a36
00000060: 13f3 fa3c 6df5 fc3c a3c7 2332 6c93 a83c
00000070: e9c1 553d 8cf9 513d e645 d43c 3e0b bd3d
00000080: b94e 2b3e 524b c33d 3ff5 bd39 2d80 c43d
00000090: 2b05 6937 3886 0e3e 0f3d fb3e 39ac ac3e
000000a0: b199 1d3c 759f 203e 665e c83c be0f b53d
000000b0: f3e5 8a3f d5a9 a43d 1ffd 9537 e1a3 0839
000000c0: 37f2 ec3c 2afd 9e3c d2ae d43e a63b e335
000000d0: 9b0d c939 f48c b63a e899 f13d 2a67 3538
000000e0: 5a5d 863c e4d4 1039 1f68 783e b12e 3a36
000000f0: fb92 8b3d 3b31 8037 3960 823b f721 2a3b
8.2122815e-06 7.2224034e-06 0.111878976 0.008739881 0.062470157 0.08913202 0.0043483963 0.18459569
0.41272378 0.0008387149 0.061262574 0.10653775 0.038913142 0.03125795 0.7929995 0.011151023
2.8455457e-05 0.111387715 0.000107341926 0.07301371 0.0028481423 3.117787e-06 0.181654 4.6189216e-06
0.030633485 0.030878747 9.533241e-09 0.020578109 0.05218688 0.051263377 0.025912236 0.0923066
0.16729249 0.095358506 0.00036231612 0.0959476 1.38890855e-05 0.13918388 0.49070022 0.33725145
0.009619162 0.15685828 0.024459075 0.08840893 1.0851425 0.080402054 1.7880053e-05 0.0001303102
0.02892409 0.019407827 0.41539627 1.6930178e-06 0.00038347844 0.0013927505 0.117969334 4.3249842e-05
0.016401935 0.00013812218 0.24258469 2.7743338e-06 0.06815144 1.5281714e-05 0.003978756 0.0025960186

exp_avg_diff f4 [64]
00000000: 88c7 dab3 513e 3232 6a98 233c e818 1c3b
00000010: 10f9 03bc 674c 26bb 5809 b939 ef53 b3bc
00000020: 9ab3 a7bc 8ac1 89b6 5b2a 0f3c 771c d83b
00000030: dc07 1e39 a596 0ebc 0324 773c c63b beba
00000040: 12eb 05b4 28e9 97bc 953d 36b7 a915 8abb
00000050: 5ea6 2d3a 5534 35b4 eedf b7bb bc2d 1735
00000060: 1847 1dba c226 d63a 1cb0 84b0 216a ddba
00000070: 2f34 8c3c 68cb 16bc 91f3 11bb e2e0 7cbb
00000080: 0b34 1aba a592 083d 48a9 a536 ad89 dbba
00000090: 6a73 5e2f 3edc c5bb ff65 dbbc e972 dbbc
000000a0: 41fc a039 d02c 103c 7426 b13b 89fa 6c39
000000b0: 612c a4bb af83 c53b da0e c6b3 ab1d 00b6
000000c0: ba3c 833b 9064 9638 70a0 d4b8 8869 582e
000000d0: baef a0b5 51a5 1a36 0af7 c7bb 1d97 8536
000000e0: 0ead 2737 9f9a 31b5 06c2 313a a0c6 a3b0
000000f0: f11e d4bb 862d 83b6 6841 853b fb2c 66b7
-1.01877106e-07 1.0375133e-08 0.009985069 0.0023818556 -0.008054987 -0.002537513 0.0003529291 -0.021890609
-0.020471383 -4.105449e-06 0.008738126 0.00659519 0.00015070982 -0.008702909 0.015084269 -0.0014513663
-1.2472108e-07 -0.018543795 -1.08623835e-05 -0.004214008 0.0006624217 -1.6875977e-07 -0.0056114113 5.6318436e-07
-0.00059996685 0.0016338455 -9.654317e-10 -0.0016892591 0.017114727 -0.009203769 -0.002227042 -0.003858619
-0.0005882389 0.033342976 4.93709e-06 -0.0016749405 2.0231786e-10 -0.006038218 -0.026782034 -0.026788192
0.00030705522 0.008799747 0.0054061953 0.00022600045 -0.005010173 0.006027661 -9.222795e-08 -1.9090755e-06
0.004005042 7.1712886e-05 -0.000101388316 4.9206444e-11 -1.1990699e-06 2.3044015e-06 -0.0061024474 3.981301e-06
9.994268e-06 -6.616264e-07 0.0006780926 -1.1916264e-09 -0.006473415 -3.909404e-06 0.004066635 -1.3719541e-05

neg_pre_grad f4 [64]
00000000: b570 8e35 0000 0000 2685 10be 226d c4bc
00000010: 87e4 503d 9566 5f3d 902e 2fbb b47c 923e
00000020: 3638 a63e 6fcd 5537 004c 08be 5c1f 96bd
00000030: a9df 253c fbbf bd3d 48e0 b7be 8a92 95ba
00000040: 0000 0000 12ea 883e 07d1 1239 cd1e 813d
00000050: fe27 dbbb 0000 0000 0428 e93d 6869 f4b6
00000060: 4297 2339 6963 38bd 0000 0000 6b03 333c
00000070: 0c61 64be 4115 e63d 8ce1 cc3c c9bb 263d
00000080: 14c5 103b 254b e5be 3fb7 36b9 b0c6 bb3b
00000090: 0000 0000 66c3 2f3d a943 d23e ffab 543e
000000a0: cbae 8dbb ecdd 93bd 706e 91bd 642b 5bba
000000b0: 6aca 533d af78 e7bc 0000 0000 5d78 9437
000000c0: 80ca 7dbd df40 95ba aa27 523c 0000 0000
000000d0: 1851 7737 d0f6 00b8 7d50 9f3d 9cbc 40b8
000000e0: fdd6 a3b8 b771 0137 9b35 213b 0000 0000
000000f0: d64e ac3d 183d 8338 7602 18bd 169e 01b8
1.0612627e-06 0.0 -0.14113292 -0.02397782 0.05099919 0.05454119 -0.0026730634 0.28610766
0.3246476 1.2743621e-05 -0.13310242 -0.073302 0.0101241255 0.09265133 -0.359133 -0.001141147
0.0 0.2674108 0.00014001514 0.06304703 -0.006688117 0.0 0.113845855 -7.2840376e-06
0.0001560124 -0.04501668 0.0 0.010926108 -0.22302645 0.112345226 0.025009893 0.04070643
0.0022090124 -0.44783893 -0.00017425137 0.0057304725 0.0 0.042910956 0.41067246 0.20768736
-0.0043238155 -0.072200626 -0.071011424 -0.0008360653 0.05170671 -0.028255789 0.0 1.7699023e-05
-0.061960697 -0.0011387131 0.012826839 0.0 1.4741228e-05 -3.074744e-05 0.07779024 -4.5952023e-05
-7.8124904e-05 7.7154755e-06 0.0024598602 0.0 0.08413474 6.2579464e-05 -0.037111722 -3.0903226e-05

exp_avg f4 [64, 64]
00000000: f7d0 b932 6e9a bf34 e06c 303a 088e 4939
00000010: 92f1 85b9 fea0 3c38 b5b0 ae38 1ccc c43a
00000020: fbc5 4bb7 beb5 8637 ae7c 4739 0642 413a
00000030: 1fff 7738 1333 e539 6fa9 86b9 0cde 62b9
00000040: a854 b235 e8d5 503a cbcd 49b5 d168 67b4
00000050: 7773 1bb7 0840 dc34 ebb0 73b9 4109 9533
00000060: 33db 10b8 b66e 373a e42a d232 21fd ac38
00000070: 96fd 6a39 72df 8b38 aceb 4e39 2ebd 8a38
00000080: 0768 5c38 43c7 9138 6cfd 5036 fb63 12b7
00000090: 529d 9a35 0789 03b9 dcb4 483a 8759 4b3a
000000a0: f287 94b6 df28 e937 6a95 d239 5360 b435
000000b0: bd94 5c39 188a 3eb8 9d02 8635 71f8 b235
000000c0: a611 2138 3229 29b8 8d0c b939 913f 3c33
000000d0: 73d3 7cb6 03aa 53b6 4f8c c837 bb28 21b5
000000e0: a26c 97b6 55c8 3db5 ce01 05b9 eb6b 25b4
000000f0: e21f cd39 31ba 5636 81da 1537 c32f 5436
00000100: 74b8 1834 c9d4 02b6 76d9 27bb ede2 7d39
00000110: 8ed9 d038 8c47 4db9 cf0c e2b8 e5c9 ecba
00000120: e7cf 07bb 9fd9 1137 8850 dcba 737f 92bb
00000130: e88a 01ba f8bc b4ba e41a 0bba b28f 4738
00000140: 776b 23b5 7c91 84bb 77ce ceb5 d7b1 12ba
00000150: 959d 5a38 c7fa 0bb6 928b 5eb9 efca 78b5
00000160: 6429 c7b9 cb5a ddba 8417 0233 3abc da38
00000170: 8a0d 2aba 22df cfba f874 d5ba a4f4 d5b9
00000180: d6f3 feb7 0c9d 84ba 4eba 2cb7 1a8a 0137
00000190: 62af 5cb6 ca65 8aba 3a02 1dbb f9c6 55bb
000001a0: c674 1f38 ff4d 1bb9 13d9 80bb 643e a437
000001b0: 0c46 0dba 707d 2fba 95da 5735 4416 46b7
000001c0: 8ec5 3838 d8f6 17b7 743a bfbb dfdd bcb4
000001d0: f0df 41b6 b98a 25b8 de02 b7b7 1ac3 afb5
000001e0: 57fa 51b6 90d0 0337 ad56 1bba a6ce b1b4
000001f0: f58f ddba 6860 9a36 d2a8 1eb7 4c6a c236
00000200: 009c 06b5 951d 6fb4 c920 e73a 5beb 543a
00000210: 4831 2bba 301e 26b9 c5de 2339 6433 ce3a
00000220: 2dad 993a 989b f936 be4a 223a 235e f03a
00000230: 23f2 0e39 6fb7 e339 f52a 0fba d1ce 67ba
00000240: 8d10 4934 461f cf3a d0de 2fb7 e2c0 aa39
00000250: 3eaf 08b9 892f 63b5 91c8 c037 1cdc 8e35
00000260: 8566 163a 05b9 893a db28 ceb1 b754 bab9
00000270: c56b 4538 fb5e 903a 86a9 023a 24ad 6439
00000280: ad3b 6338 e4a3 d338 71ee 49b6 0f2c 3538
00000290: 88f8 0035 27cb ab39 db20 d33a f044 063b
000002a0: cc27 09b7 3f29 32b9 8b03 e93a dc0d 7a38
000002b0: 6ada 8839 7858 013a 70ee 0fb6 3474 e236
000002c0: 0181 3839 dcf3 da38 2c8b ce3a c490 3734
000002d0: 6fa8 a536 ebb4 9e38 1d42 24ba 6141 2835
000002e0: 03af 5a39 d073 e1b5 bb85 3338 05b0 a634
000002f0: 7de6 523a 3bdb 90b6 58db b833 481a 3737
00000300: 6a68 06b6 56f8 8cb3 c45a a33b 4e45 03ba
00000310: 549c 47ba 1117 aa3a cce9 4738 0973 0d3b
00000320: 6d47 323c 0977 f837 97f5 073b 2724 403c
00000330: 1ebf 41ba f876 103b ef6c f03a 8fb4 4939
00000340: 1d74 1c36 736c fa3b 8260 feb7 9585 edb9
00000350: 25db 0138 b008 45b6 a233 243b 7ebc 5136
00000360: b4bf 8a39 feea 8e3b ac17 66b2 8c1b 803a
00000370: 9c0a 093b 2030 4b3a d617 9a3b cd74 24b9
00000380: 9c1d 9739 a8ca 87bb f1fb 4137 7387 93b8
00000390: b046 3036 ef3d cdba 00a1 e53a 2d09 0c3c
000003a0: c3c7 bab8 f23c 833a 41aa 9b3b aa56 9039
000003b0: cbe1 cf3a 75b5 953a d15e 9db6 f105 d437
000003c0: 0dd1 f0b6 ef79 89b8 f423 633c 19e7 a635
000003d0: 52d3 f436 b918 0539 7c03 743a 86fa 23b5
000003e0: 1c4a 24b9 aae9 84b6 b1f8 be3a cc23 0136
000003f0: 8fdf 723b 55e4 81b7 1567 c137 a948 bc38
2.163186e-08 3.5688885e-07 0.0006730091 0.00019221765 -0.0002554772 4.497263e-05 8.329881e-05 0.0015014443
-1.2145839e-05 1.6058675e-05 0.00019024566 0.0007372204 5.912699e-05 0.00043716337 -0.0002568471 -0.00021635758
1.3286672e-06 0.0007966445 -7.5177803e-07 -2.1551683e-07 -9.265604e-06 4.1024782e-07 -0.00023240193 6.9400365e-08
-3.453642e-05 0.0006997393 2.4466722e-08 8.248748e-05 0.00022410447 6.6696564e-05 0.00019733486 6.61559e-05
5.254897e-05 6.951254e-05 3.1141926e-06 -8.725557e-06 1.151968e-06 -0.0001254418 0.00076563447 0.0007757176
-4.42657e-06 2.7794797e-05 0.00040165643 1.3439079e-06 0.00021036244 -4.542814e-05 9.984539e-07 1.3334339e-06
3.8401828e-05 -4.0331106e-05 0.000352953 4.3829974e-08 -3.7674006e-06 -3.154041e-06 2.3907194e-05 -6.0036444e-07
-4.512797e-06 -7.069951e-07 -0.0001268454 -1.5406083e-07 0.00039124402 3.1996863e-06 8.9319665e-06 3.1618263e-06
1.4223207e-07 -1.9495367e-06 -0.0025611795 0.00024212497 9.9587356e-05 -0.00019576977 -0.000107789056 -0.001806554
-0.0020723285 8.693342e-06 -0.0016808668 -0.0044707595 -0.0004941658 -0.0013789227 -0.0005306436 4.7579124e-05
-6.0878614e-07 -0.0040456634 -1.5408285e-06 -0.0005595958 5.212201e-05 -2.0858586e-06 -0.00021223564 -9.2682507e-07
-0.00037987076 -0.001688802 3.028937e-08 0.0001043011 -0.0006487003 -0.0015859345 -0.001628547 -0.00040808797
-3.0392705e-05 -0.0010117604 -1.0295376e-05 7.721153e-06 -3.288464e-06 -0.00105589 -0.0023957626 -0.0032619818
3.8017308e-05 -0.00014811008 -0.0039321273 1.9579376e-05 -0.0005389161 -0.0006694412 8.041182e-07 -1.1806904e-05
4.4053006e-05 -9.057774e-06 -0.0058358256 -3.517916e-07 -2.888959e-06 -3.946826e-05 -2.1816635e-05 -1.3095298e-06
-3.1289144e-06 7.856768e-06 -0.00059256965 -3.3119176e-07 -0.0016903864 4.600781e-06 -9.45684e-06 5.794025e-06
-5.01459e-07 -2.2269371e-07 0.0017633672 0.0008122229 -0.0006530476 -0.0001584224 0.0001562788 0.0015731868
0.0011724584 7.4388918e-06 0.0006190947 0.0018338602 0.00013632378 0.00043433483 -0.0005461418 -0.0008842769
1.8725605e-07 0.0015802167 -1.048269e-05 0.00032568636 -0.00013035254 -8.463326e-07 2.298158e-05 1.0643885e-06
0.00057373225 0.0010507411 -6.000034e-09 -0.00035539802 4.706883e-05 0.0011014635 0.00049843674 0.00021808274
5.4176595e-05 0.00010091791 -3.0090125e-06 4.3194796e-05 4.8045376e-07 0.00032767022 0.0016107814 0.0020487867
-8.175102e-06 -0.00016990768 0.0017777545 5.9617552e-05 0.00026102673 0.00049341423 -2.144745e-06 6.7488527e-06
0.00017595665 0.000104404724 0.0015758029 1.7095869e-07 4.9369914e-06 7.567726e-05 -0.0006265955 6.2680016e-07
0.00020855297 -1.6797512e-06 4.2801472e-05 3.104798e-07 0.00080452097 -4.317056e-06 8.608066e-08 1.0913769e-05
-2.0028333e-06 -6.56443e-08 0.0049851853 -0.00050075806 -0.0007614542 0.0012976845 4.7663038e-05 0.002158346
0.010881287 2.9619334e-05 0.0020745748 0.011727369 -0.00073908444 0.0022043567 0.0018343012 0.00019236117
2.3313398e-06 0.0076423227 -3.03241e-05 -0.0004530369 3.096009e-05 -2.9360344e-06 0.002505519 3.1253144e-06
0.0002646424 0.0043615093 -1.3393144e-08 0.0009773835 0.0020910865 0.00077510066 0.0047025485 -0.0001568377
0.00028823025 -0.0041440316 1.1562356e-05 -7.0347356e-05 2.626719e-06 -0.0015658716 0.0017519295 0.00854711
-8.90638e-05 0.001001267 0.0047505205 0.0002753039 0.0015860138 0.0011421876 -4.6900027e-06 2.5275136e-05
-7.176894e-06 -6.555381e-05 0.013863552 1.2435222e-06 7.2963676e-06 0.00012693078 0.00093083805 -6.108679e-07
-0.00015667867 -3.9611086e-06 0.0014569965 1.9243334e-06 0.003705952 -1.5484324e-05 2.3055394e-05 8.9780726e-05

exp_avg_sq f4 [64, 64]
00000000: e679 d531 d187 8333 deea 0a3b c5a9 1839
00000010: 52bd c737 0316 6c37 c19b 2738 9ea0 ed3a
00000020: d510 803b e9a7 b334 fe23 803a 3a57 a83b
00000030: d263 dd39 8bb2 813a dc5e 6e39 8f01 7d37
00000040: d486 1f33 ed28 063b d10d bb33 e9a3 af38
00000050: 550e 8036 6d04 6a33 e48c 4b38 971c af31
00000060: bffe 203a 638c e73a b85e 052c 06f6 9136
00000070: 2a4f 303a 996e 8a3a eedf 163a 1e52 1a38
00000080: 115c 7337 8468 833a d8aa 4835 6cac 0537
00000090: e16e 0335 602a 8a39 7963 d63a 4885 923b
000000a0: 3dbd 0436 77d0 e237 0d55 443b 1606 9f36
000000b0: 9767 163a 623e 033a 64c9 8631 1ab2 8733
000000c0: 4289 b736 53d3 0737 e096 c73b 7958 0e30
000000d0: 3f06 9f35 9cc7 b136 1067 f237 65f4 3a32
000000e0: add1 8a37 0ec5 a234 8ea5 4539 93b8 9531
000000f0: ef4e 213a b187 dc33 77b0 5633 fa58 0b36
00000100: 1aa1 4636 9cd5 4235 dc64 1a3a eacf 7739
00000110: b09a 9038 c8ec 9b37 ef48 3738 5c0f ff39
00000120: c7d0 263a f1ee 9b37 078b 063a ca6c e23a
00000130: 0be1 a238 76dd d839 0053 e338 1077 e738
00000140: 5f2e f635 5471 803a 5381 ba35 be5e 3538
00000150: 71a8 6b38 07af 0136 e23f 0038 6c1f a533
00000160: f593 9139 49e6 ed39 7eed 2f30 7968 e937
00000170: 3407 9339 0aa5 2239 d1af 8f39 cf35 5838
00000180: aac6 db37 e966 143a 182a 0238 f4fa 1b37
00000190: 3186 7337 3a41 5239 94ed ca39 0387 8b3a
000001a0: 7b88 b738 524f e537 0891 ba3a a4df 4936
000001b0: a284 0d39 0060 dc38 8d38 db33 12bf be35
000001c0: 13d8 be38 1377 ad38 4aa1 373b ea7c 7435
000001d0: 33a4 f937 a44b 9538 765e 5f37 6897 2235
000001e0: 02e4 3d39 2504 c636 f36b c338 7f20 1c33
000001f0: 8680 7739 e997 2a36 4a21 a534 910c ed37
00000200: 5cf3 2134 a076 4534 07b8 f73a 8a92 443a
00000210: bd3d 2839 17c0 4738 fd02 6839 2523 513a
00000220: 8862 8a3a a3b0 eb36 df53 af3a 9180 4f3b
00000230: 1677 bf37 52d6 a13a 0199 b039 e050 033a
00000240: 34dc 3134 05a1 703a a5d0 ef35 bd57 7938
00000250: 5dc2 0339 321f 3734 2fa1 2739 a58f 5c34
00000260: 6a78 c73a 499d ca3a a7b4 172d d41f 1139
00000270: 1699 803a 52a3 ca39 667c 7439 8ab1 c337
00000280: 226b 8038 73d3 a73a 6f25 4d36 796b 1337
00000290: 1862 8634 5921 fc39 5e0b 2c3a 22c6 193b
000002a0: 29af c338 3a57 9038 935c 383b 84e8 b436
000002b0: ba6a 8339 40f9 5339 fc9d 8b34 989f c935
000002c0: 6d7f 9a37 a82f 3539 75e0 903b 2f76 2933
000002d0: c0a4 de37 bbaf ec38 c421 3239 3263 1034
000002e0: c206 f639 ecb9 0d35 ff2b dc39 aa72 2233
000002f0: ad65 a839 c87a 4435 3c16 c833 84ed 1338
00000300: 6c1f a236 87f1 d136 97c4 dc3b 601e 3f3b
00000310: 3631 533a a2ff f339 eb85 013a 750a d13b
00000320: 5fd8 383c 46b2 9038 70cd c83b 6dde ae3c
00000330: 35d3 023a cee3 dd3b 2748 6a3b 0d6a 9f3a
00000340: b41b e936 bea2 4d3c b939 2838 dc6c dd39
00000350: beb6 283a 409f ba35 884b a53a 3443 7235
00000360: 4f95 633b 7b14 ab3b 98c3 1f2f e9ea 193a
00000370: c281 803b e2da 1f3b 7b99 203b 8d35 9839
00000380: 7d1f 4a3a 7342 2c3c 550e 6637 715d 1e39
00000390: 6bdd 3236 38f1 f63a 7bea 9d3b d2a2 653c
000003a0: cab5 533a d980 273a 8c38 543c 6714 9238
000003b0: 6b61 343b 0014 023b f1a9 3f36 4bd8 8337
000003c0: 7872 7e39 77fe a53a 77eb 013d 437d 6a35
000003d0: af56 a638 2107 f639 137a 8d3a 7891 e935
000003e0: 5122 483b b4ec ac36 0846 053b 6d00 4835
000003f0: b54c e33a 72a0 ec36 0075 b835 d8d9 a839
6.212974e-09 6.124868e-08 0.002119712 0.00014559094 2.3810808e-05 1.4071821e-05 3.996096e-05 0.0018129533
0.0039082565 3.346352e-07 0.0009776352 0.0051373513 0.00042226777 0.0009895129 0.00022732787 1.5080338e-05
3.7142698e-08 0.002047117 8.710379e-08 8.375181e-05 3.8163657e-06 5.4486396e-08 4.8530186e-05 5.0964206e-09
0.0006141476 0.001766574 1.8953016e-12 4.3499776e-06 0.00067256636 0.0010561525 0.0005755414 3.679294e-05
1.4505365e-05 0.0010025655 7.4754416e-07 7.967563e-06 4.8962653e-07 0.00026352983 0.001635655 0.004471455
1.9779684e-06 2.7038373e-05 0.002995792 4.7392778e-06 0.0005737482 0.0005006549 3.9228087e-09 6.318824e-08
5.469804e-06 8.09583e-06 0.0060909837 5.1785026e-10 1.1848241e-06 5.2982487e-06 2.889664e-05 1.0882194e-08
1.654852e-05 3.0318228e-07 0.00018849058 4.3574544e-09 0.00061534246 1.02692304e-07 4.998625e-08 2.0764405e-06
2.9598073e-06 7.2581474e-07 0.0005889663 0.0002363321 6.895268e-05 1.85877e-05 4.3698525e-05 0.00048648834
0.0006363508 1.8588706e-05 0.0005132411 0.0017274853 7.7666795e-05 0.00041363732 0.000108396634 0.000110371155
1.8341924e-06 0.0009799399 1.3895718e-06 4.3242e-05 5.618524e-05 1.9324377e-06 3.0577074e-05 7.689127e-08
0.00027766792 0.00045375738 6.4002126e-10 2.7824413e-05 0.00028043392 0.00015511006 0.0002740608 5.1548526e-05
2.6199345e-05 0.0005661087 3.1033618e-05 9.2971495e-06 1.4515173e-05 0.0002005146 0.00038705452 0.0010645095
8.7515415e-05 2.7335864e-05 0.0014233897 3.008151e-06 0.00013496217 0.00010508299 1.0208269e-07 1.4211712e-06
9.100153e-05 8.271462e-05 0.002801972 9.107886e-07 2.9759574e-05 7.118963e-05 1.3313829e-05 6.057003e-07
0.00018109384 5.9013423e-06 9.318432e-05 3.6351135e-08 0.00023603634 2.5420397e-06 3.0757866e-07 2.8258453e-05
1.5082827e-07 1.839021e-07 0.0018899449 0.00074986427 0.00016044728 4.7624195e-05 0.00022126357 0.0007977954
0.0010557929 7.024109e-06 0.0013376436 0.0031662325 2.2824428e-05 0.0012347198 0.00033683333 0.0005009305
1.6564519e-07 0.0009179267 1.7867611e-06 5.944794e-05 0.0001256554 1.7054552e-07 0.00015986407 2.0541354e-07
0.0015218381 0.0015458252 8.623469e-12 0.00013840134 0.0009811248 0.00038650125 0.00023315995 2.3328485e-05
6.123471e-05 0.0012804106 3.056917e-06 8.786906e-06 2.5030818e-07 0.00048090031 0.0006562973 0.0023464044
9.330951e-05 6.882702e-05 0.002813135 5.3914864e-06 0.00025065785 0.00020215381 2.6005716e-07 1.5022115e-06
1.8417568e-05 0.00017279258 0.0044212886 3.9455866e-08 2.654118e-05 0.00011286089 0.00016987982 1.3447132e-07
0.0004692581 5.2797145e-07 0.0004199445 3.782285e-08 0.0003211921 7.319436e-07 9.31727e-08 3.5268735e-05
4.831634e-06 6.256803e-06 0.0067373025 0.0029162392 0.0008056344 0.00046539033 0.0004940915 0.0063794204
0.011282056 6.899661e-05 0.0061280057 0.021346295 0.0004990579 0.006771541 0.0035748573 0.0012162343
6.947166e-06 0.012551008 4.010808e-05 0.0004223351 0.0006435922 1.3904428e-06 0.0012611011 9.024982e-07
0.0034726446 0.0052209473 1.4530455e-10 0.0005871491 0.0039217183 0.002439194 0.0024505544 0.00029031598
0.00077103806 0.01051389 1.3712405e-05 0.00015102864 2.665295e-06 0.0018840199 0.004819212 0.01401587
0.00080761 0.0006389744 0.012952935 6.965623e-05 0.0027523886 0.0019848347 2.8560137e-06 1.5717136e-05
0.0002426597 0.0012664337 0.031718697 8.735407e-07 7.931643e-05 0.00046926088 0.0010793827 1.740219e-06
0.0030538032 5.1535553e-06 0.0020335931 7.4506426e-07 0.0017341586 7.0520264e-06 1.374312e-06 0.00032205763

exp_avg_diff f4 [64, 64]
00000000: c100 1b33 007f 2731 272d 5db8 d3aa 8ab9
00000010: df1b beb6 68f9 e0b8 54fb 91b7 39ce 4cb8
00000020: efe1 21ba 9c93 b2b5 6920 57b9 30e3 5fba
00000030: 8b77 52b8 7636 d7b9 8fe3 16b9 f7df 98b8
00000040: 829e 7db3 c55a 81ba 1605 0db5 70a2 e538
00000050: 8e43 6fb7 5e1b 2330 14dc 3fb9 312c c1b2
00000060: 07df 1bb6 10e2 b2b7 71d0 edaf 54c4 81b4
00000070: f189 57b9 a823 39b8 ed23 c338 22df fbb6
00000080: 105c abb7 f5f5 2dba f9c7 36b5 fab0 2136
00000090: a336 ef2b 2def 6d39 2560 ddb8 b5c1 deb9
000000a0: f2c2 dab5 f7f3 d137 09b3 a5b9 40d4 c5b6
000000b0: 5cf6 01b9 db11 bfb8 61f5 d5af 3bf3 68b2
000000c0: 024b 0037 5347 34b6 9a25 a0ba e6c5 ae2d
000000d0: 0b73 8db4 4c46 b1b3 6a01 8536 8a52 7db5
000000e0: d5da 73b5 f1d8 9b32 2ecb a038 39bd a62d
000000f0: 63aa 2ab8 5fb4 0934 2c46 abb6 eda2 81b5
00000100: 3c3c f732 e131 f12f a5a4 38b9 db6f cf39
00000110: edb8 fb37 b6f2 ea39 fdce 8f37 864a e0b9
00000120: 583c 803a 75f2 35b6 fce3 a2b9 6049 253a
00000130: ca7e 7639 c72a 5838 f48d c4b9 9f1e 45b7
00000140: 1e82 11b4 f605 9d3a 6fd8 5bb4 db38 5fb7
00000150: 766e 62b6 6947 7fb0 1456 f539 9627 8bb2
00000160: 4951 8035 728c 27b9 4193 6faf 56bd 2737
00000170: f590 d2b6 c7d4 4539 3a28 c8b9 386a 7738
00000180: 609c 7fb7 00f5 333a 9432 4eb4 038e 91b7
00000190: dd93 5caa 7f4c 82b9 4848 c838 3cd0 153a
000001a0: 4892 89b4 fab9 8a39 f15b 1d39 a312 15b6
000001b0: 5136 8638 b88f d038 0a46 15b0 416f bcb3
000001c0: bd92 b4b6 84ce 0bb6 8f71 773a 3b38 112d
000001d0: 158d 11b4 aeeb 9db3 3dea 1137 1d71 42b5
000001e0: 495d 69b5 a2c1 4f32 fdf6 8eb8 4f54 022f
000001f0: 487c b738 0a05 4734 b34b ae36 2e1c 2936
00000200: 4a3c 2cb3 2f8d 7930 c798 fe38 1233 94b9
00000210: e397 85b8 372b 17b8 319a 07b7 57c2 1839
00000220: 9bfa f4b8 521a be35 3037 1039 f286 7238
00000230: ecfb 16b8 6b05 acb7 a465 54b7 5ef3 dcb8
00000240: beeb a733 3802 2cb9 fcc6 9db5 7523 f237
00000250: 3eae c9b7 b60f 7eb0 75b7 cab7 c641 8432
00000260: 1b1a 68b6 74b7 5e38 79e9 2b2f f1f1 86b7
00000270: 3816 84b7 9a1d dbb8 6873 8439 c8a5 7db6
00000280: 444d 1a37 1e52 d4b9 2b61 c4b5 a3bf 8a36
00000290: ad31 4cac c8f5 be38 964d 84b8 8f2b 84b9
000002a0: 6fb2 17b5 4dd6 9138 9347 a238 2745 2436
000002b0: e559 8eb8 ac01 71b8 e92b 7ab0 ff04 4d32
000002c0: e171 5e37 5afb 0ab5 3826 2738 7b50 2ead
000002d0: c81e 6c33 d0d6 aab2 3130 7136 50d6 2635
000002e0: 6cb6 6ab5 9bcf 2cb2 5ed8 5c38 4ed8 ad2d
000002f0: a011 1039 950d 13b5 4d7e c835 34e0 85b4
00000300: c045 14b2 a744 daae 0080 8a3b 5042 3cb9
00000310: 15fc 5538 afa6 103a 5823 39b8 71f4 8c3b
00000320: af4d ac3b 6d28 f435 3b5b d63b dab3 4a3c
00000330: 2702 7c3a 987d ad3b 0926 403b 03cd 81b8
00000340: 34ca 0c34 6d59 0c3c 8395 30b7 1029 ae39
00000350: 6877 c8b7 c277 86b1 36f6 263a f909 8fb3
00000360: fd76 9fb7 7edf 333b 6021 262f 5fc3 3138
00000370: 951c 2e3b a516 0238 da80 a63b 2b19 1b39
00000380: a5c9 81b6 3286 623a 80bd 0bb7 181f 6738
00000390: ffd5 942d f04f 6cba a9b9 e639 f5bc 3d3b
000003a0: f396 82b6 00a3 c438 50ed ca3b 6e78 65b7
000003b0: 73b9 7d3a a5ba d7b8 7940 1db1 07be 0c34
000003c0: 6ab5 2b38 f3bf 40b7 8765 883c ff84 0fad
000003d0: 8cb3 2bb6 e310 fcb5 7b0e 6f38 9ba7 f534
000003e0: 4e98 76b7 b79c 3db1 ad8b b539 2dcd ccad
000003f0: 6978 303b c28c 5cb6 157a 0cb8 ec0d b836
3.6089435e-08 2.437389e-09 -5.2732557e-05 -0.00026448685 -5.665686e-06 -0.00010727608 -1.740238e-05 -4.882945e-05
-0.00061753293 -1.3304993e-06 -0.00020516072 -0.00085406285 -5.0179235e-05 -0.00041048572 -0.00014389887 -7.2896415e-05
-5.9050315e-08 -0.000986897 -5.2533994e-07 0.00010949827 -1.4261239e-05 5.9337946e-10 -0.00018297165 -2.2488253e-08
-2.3226619e-06 -2.1324522e-05 -4.3258155e-10 -2.417097e-07 -0.00020555385 -4.4140645e-05 9.305016e-05 -7.506359e-06
-2.0427658e-05 -0.0006636077 -6.809128e-07 2.4093883e-06 1.6997136e-12 0.00022691181 -0.000105560095 -0.00042487463
-1.6299002e-06 2.5028346e-05 -0.00031604644 -5.8957667e-06 -0.00012394175 -9.1109156e-05 -3.8918826e-10 -1.35594815e-08
7.646859e-06 -2.6863606e-06 -0.0012218237 1.9869394e-11 -2.6347e-07 -8.254992e-08 3.9638735e-06 -9.4369955e-07
-9.0842997e-07 1.8143028e-08 7.66724e-05 1.8956047e-11 -4.0689843e-05 1.2824738e-07 -5.104366e-06 -9.658667e-07
2.8781976e-08 4.3873086e-10 -0.00017608942 0.00039565456 3.0007644e-05 0.00044812792 1.7143315e-05 -0.00042780134
0.0009783609 -2.711223e-06 -0.0003106891 0.0006305184 0.00023507621 5.1538253e-05 -0.00037489797 -1.1749245e-05
-1.3551514e-07 0.0011979926 -2.0474702e-07 -1.33050735e-05 -3.374092e-06 -9.286994e-10 0.00046794175 -1.6199731e-08
9.5604e-07 -0.00015978681 -2.1789238e-10 9.998059e-06 -6.275363e-06 0.0001886665 -0.00038176944 5.8988313e-05
-1.5235593e-05 0.0006864816 -1.9203645e-07 -1.7351476e-05 -1.9591226e-13 -0.00024852526 9.5502066e-05 0.0005714928
-2.5624672e-07 0.00026459974 0.00015006938 -2.2213578e-06 6.399735e-05 9.9449826e-05 -5.4305416e-10 -8.774669e-08
-5.3815006e-06 -2.0832822e-06 0.0009439224 8.254781e-12 -1.3555503e-07 -7.353752e-08 8.697211e-06 -7.2435233e-07
-8.693501e-07 1.2093013e-08 -6.817093e-05 1.1853384e-10 8.749269e-05 1.8535152e-07 5.1944166e-06 2.5199365e-06
-4.0101703e-08 9.0786306e-10 0.00012140121 -0.0002826681 -6.370225e-05 -3.6041452e-05 -8.0825275e-06 0.00014568247
-0.000116815056 1.4163763e-06 0.00013753469 5.7822974e-05 -3.5997407e-05 -2.050652e-05 -1.265985e-05 -0.00010535748
7.819425e-08 -0.00016404025 -1.1755324e-06 2.8865159e-05 -2.4042205e-05 -9.242699e-10 -2.4165705e-05 1.5396733e-08
-3.458589e-06 5.309978e-05 1.5635306e-10 -1.6086708e-05 -1.5745973e-05 -0.000104482475 0.00025262986 -3.7796435e-06
9.197105e-06 -0.00040496973 -1.4631418e-06 4.13503e-06 -2.901772e-12 9.105686e-05 -6.308702e-05 -0.00025209456
-5.651154e-07 6.9540554e-05 7.738094e-05 2.4478156e-06 -6.787832e-05 -5.7460435e-05 -9.101187e-10 1.19337065e-08
1.3258746e-05 -5.177477e-07 3.9851497e-05 -9.908625e-12 5.4976027e-08 -1.988829e-08 3.593985e-06 6.2151685e-07
-8.743725e-07 -1.0058922e-08 5.2653595e-05 1.9763882e-11 0.00013739476 -5.478153e-07 1.493792e-06 -2.493631e-07
-8.630593e-09 -9.9256874e-11 0.0042266846 -0.0001795378 5.1017927e-05 0.0005518002 -4.4140354e-05 0.0043016006
0.005258284 1.8191182e-06 0.0065416372 0.0123719815 0.0009613358 0.005294513 0.0029319546 -6.189386e-05
1.3112077e-07 0.008566243 -1.0525228e-05 0.0003321846 -2.389746e-05 -3.913528e-09 0.0006369086 -6.6607704e-08
-1.9009685e-05 0.0027446444 1.5109469e-10 4.2382042e-05 0.002656733 3.1015505e-05 0.0050812783 0.00014791328
-3.867974e-06 0.00086412125 -8.329167e-06 5.510365e-05 1.6920685e-11 -0.0009014597 0.00044007346 0.0028951738
-3.8918747e-06 9.3763694e-05 0.0061928406 -1.3677503e-05 0.0009678818 -0.00010286764 -2.2883155e-09 1.3107648e-07
4.0938532e-05 -1.14887835e-05 0.016649975 -8.15814e-12 -2.5585496e-06 -1.8780378e-06 5.6995526e-05 4.5756755e-07
-1.4698204e-05 -2.7592202e-09 0.00034627077 -2.3283231e-11 0.0026927239 -3.2864486e-06 -3.34923e-05 5.485248e-06
